onnx_models/eSR-MAX_s2_K7_C14.onnx (onnx, 11557 bytes, 1 tensors)

filter.weight f4 [56, 1, 7, 7]
000000 52 51 ed bd 69 59 f7 bd 29 7d 84 bd 54 8c 1f be
       -0.11587776 -0.120776005 -0.06469185 -0.15580875
000010 fb 57 b7 bd e8 47 b7 bd 8c 0e cc bd e9 08 09 be
       -0.08952328 -0.08949262 -0.09963712 -0.13382305
000020 51 6c 91 bd 13 34 83 bd 05 eb fb bd d3 8e f3 bd
       -0.07100738 -0.06406417 -0.12300686 -0.11892476
000030 ec 5a db bd a1 2f c4 bd 14 76 ac bd 8f 90 ff bd
       -0.10710701 -0.09579397 -0.08420959 -0.12478744
000040 4b f9 01 bd 4c b1 d6 bd 10 f2 e5 bd 21 a3 2a be
       -0.031731885 -0.104830354 -0.112278104 -0.16663791
000050 fd 65 97 bd f1 46 ce bd bd 34 21 bc af ae a1 bd
       -0.073924996 -0.10072125 -0.009839234 -0.078946464
000060 48 dd 0e 3f f3 40 5c be 8a ea 13 be fb 23 be bd
       0.558064 -0.21509151 -0.14444938 -0.092842065
000070 7a 4e c4 bd 00 0f 9d bd 08 ad c7 3c a3 47 8a be
       -0.09585281 -0.07668877 0.0243745 -0.2700778
000080 85 ca 32 be 19 d5 e7 bc a8 6b a1 bd cd ed 03 be
       -0.17460068 -0.028299855 -0.07881862 -0.12883683
000090 ff 8d 85 bd 96 92 0f bc 76 22 16 be fa 9c b2 bd
       -0.06521224 -0.008762976 -0.14661583 -0.08721347
0000a0 a5 b4 19 bd 8e 12 8d bd c9 4d 8e bd 43 f3 a3 bd
       -0.03752579 -0.06888305 -0.0694843 -0.08005383
0000b0 72 98 55 3b b3 c0 e5 bd f2 79 08 be 91 5f 99 bd
       0.0032592085 -0.11218395 -0.13327768 -0.07488931
0000c0 f0 38 24 bd c0 d9 b8 bd 13 9c c5 bd d4 e1 5b bd
       -0.040093362 -0.090259075 -0.096489094 -0.053682163
0000d0 29 fe 07 be 7d be 8c bd 7b 1f 22 be 35 df 10 be
       -0.13280548 -0.0687227 -0.15832321 -0.14147647
0000e0 e3 43 b0 bd 9a fd 77 bd 2a 9a ab bd 6d 30 d8 bd
       -0.08606698 -0.060544588 -0.08379014 -0.105561115
0000f0 e0 44 7a bd 89 93 b7 bd 6f be 23 be 06 ac a1 bd
       -0.06110084 -0.08963687 -0.15990613 -0.07894139
000100 97 e2 43 be bc ea ee bd ba a9 ad bd 1d 4a 38 bd
       -0.19129406 -0.11665866 -0.084796384 -0.044992555
000110 bd 38 40 bd 30 ff 1d be 45 ca 3a bd b5 25 1d be
       -0.04692911 -0.15429378 -0.045603056 -0.15346415
000120 3b 19 38 be e4 30 4f 3f 90 d8 6f bd cd c2 d6 bd
       -0.17978375 0.80933976 -0.05855614 -0.10486374
000130 91 39 8e bd 76 bb 45 bd a4 9e f4 bd 78 57 22 be
       -0.06944574 -0.04827448 -0.11944321 -0.15853679
000140 9d 40 27 be 6a 18 80 bd 0c b8 33 bd fe fa 95 bd
       -0.16333242 -0.062546566 -0.043876693 -0.073232636
000150 fe 15 04 bd d7 f0 65 bd 27 b4 00 be e8 09 f8 bd
       -0.032247536 -0.056137886 -0.12568723 -0.121112645
000160 16 7c 84 bd 86 54 39 bd c1 05 3b bd ab fe f2 bc
       -0.0646898 -0.045246623 -0.045659784 -0.02966245
000170 d9 55 8f bd fa 19 07 be a4 50 20 bd a8 d9 79 bd
       -0.06998796 -0.13193503 -0.039139405 -0.06099859
000180 1b 75 01 bd 0c a5 9c bd ce 11 82 be 57 60 6e be
       -0.03160582 -0.07648668 -0.2540421 -0.23278938
000190 67 e8 9c be 53 ea 4a be 27 a9 3a be 33 b5 7f bd
       -0.3064606 -0.1981595 -0.18228589 -0.062428664
0001a0 d7 93 46 bc c7 e1 73 be cb aa a7 be f3 28 3f be
       -0.012120209 -0.23816596 -0.32747492 -0.18667965
0001b0 2f 91 95 be 28 3f ea be a4 8a a5 bc f6 d1 9c 3c
       -0.2921233 -0.4575131 -0.02020771 0.019143086
0001c0 8b 44 1b be 31 c5 9c be bb 93 80 bc d9 7f 36 3e
       -0.15162866 -0.30619195 -0.015695443 0.17822208
0001d0 17 dc 37 be a2 7b 67 be 64 71 1a be 6a e5 c6 bd
       -0.17955051 -0.22605756 -0.15082318 -0.09711726
0001e0 c9 47 4a be 1b 5a 84 be ce 69 1c be 8f cf b1 bd
       -0.19753946 -0.25849995 -0.15274736 -0.08682167
0001f0 7e e9 3a be 83 d2 84 bc b2 f6 3d be fd 52 5a be
       -0.18253133 -0.016213661 -0.18551138 -0.2132072
000200 9a ff c2 bd c6 66 aa be c4 94 54 be 4d 2e a8 be
       -0.095214084 -0.33281535 -0.20759875 -0.32847825
000210 4a fc 91 be c6 ce a2 bd a4 eb 36 be ba 0a 2c be
       -0.28512794 -0.07949595 -0.17863327 -0.16800967
000220 8e 07 60 be c7 dc b3 be 35 ac 90 be c9 bf e4 bd
       -0.21877882 -0.35129377 -0.28256384 -0.111693926
000230 ed d1 3e be 39 e9 33 be ff b7 2e be d0 c0 7b be
       -0.18634768 -0.17569436 -0.17062376 -0.24585271
000240 0b 42 8f be 98 f0 1b bd 44 28 9d bd 6c 3d 62 3b
       -0.27980074 -0.038071245 -0.07673696 0.0034521474
000250 d7 fd 49 3c 09 e3 d1 bc 5a 29 72 bc 25 1e ac 3b
       0.012328587 -0.025620954 -0.014780367 0.005252617
000260 ca 7c 5e 3a 7e 54 a7 ba d6 7b 56 3c 1c c8 7d bc
       0.0008487223 -0.001276627 0.013091048 -0.015489604
000270 84 3f 1b 3d 6f 8f 66 3d 5e 56 6f bc f5 e4 a4 bb
       0.03790237 0.056289133 -0.014607994 -0.0050321766
000280 e5 bc 98 39 b1 bd bc bc b4 b6 1c 3d 5a d0 1b bd
       0.00029132437 -0.02303967 0.038260177 -0.038040496
000290 26 08 f4 bd 76 fe 3a 3d 2e 5a 3c 3c a9 0f 6d 3b
       -0.11915617 0.04565283 0.01149611 0.0036172664
0002a0 e9 87 47 bc a6 51 53 3d ba e1 e3 bd 38 b8 1f 3f
       -0.0121784 0.051591538 -0.11127038 0.6239047
0002b0 38 bf dc 3c e0 ab 05 bc b4 77 7d 3b b2 00 b4 36
       0.026946649 -0.008158654 0.0038676085 5.364499e-06
0002c0 95 b7 3e bc c9 cd 13 3d e3 05 f5 3c ae dc c3 3d
       -0.011640449 0.036084924 0.029910034 0.09563576
0002d0 bb 14 2d bd 3e 36 6e 3c e3 33 43 3b 12 ab bd bb
       -0.0422561 0.0145392995 0.0029785566 -0.0057882154
0002e0 72 bb 71 3c fa 4e f3 bb 0e 0c 2b bd 0b 54 96 3c
       0.014754163 -0.007425186 -0.041759543 0.018350622
0002f0 fd 6f ab bb a9 93 aa ba 63 cd 86 b9 85 6c 5a bb
       -0.005231856 -0.0013013977 -0.00025711497 -0.0033328843
000300 25 75 c0 3b e9 d6 94 3c f7 3d cc bb e2 aa 6c bb
       0.0058733397 0.018168883 -0.0062329727 -0.0036112596
000310 08 ad 08 be 24 4b 40 bd ba 03 8c bd c8 5c 55 bd
       -0.13347256 -0.04694666 -0.06836648 -0.052090436
000320 6a 1a 6c bd 27 77 4c bd 24 cd 0f bd b4 1b 46 bd
       -0.057642378 -0.04991832 -0.035107747 -0.048366264
000330 5c c5 83 bd 28 95 6c bd 41 f6 41 bd cb fd 08 bd
       -0.06434128 -0.057759434 -0.047353987 -0.03344516
000340 09 ea 56 bd bb c1 49 bd ab 4a 0a bd f5 55 56 bd
       -0.052469287 -0.04925702 -0.033762615 -0.05232807
000350 71 3d 82 bd c6 7a 2b bd c6 44 cb bd 02 55 33 bd
       -0.06359375 -0.041865133 -0.09925227 -0.04378224
000360 6b c2 fe bc 95 08 e5 bd 24 10 97 bd ee 42 80 bd
       -0.031098565 -0.111832775 -0.073761255 -0.06262766
000370 aa 74 4b 3f 33 28 3c be 34 37 0f be 4f d4 26 bd
       0.7947489 -0.1837471 -0.13985902 -0.040729817
000380 3f 91 fe bd 17 10 ef bd 2c 45 0b be 1f 85 45 be
       -0.12430047 -0.11672991 -0.13600606 -0.19289063
000390 fb 3e ea bd 39 bf a0 bd 40 1a d0 bd 1b a3 91 bd
       -0.11437794 -0.07848973 -0.10161257 -0.07111188
0003a0 2a 37 d3 bd 2e 27 a1 bd ef 8d 27 be 66 f3 f3 bd
       -0.10313256 -0.07868801 -0.16362737 -0.11911659
0003b0 00 3d b1 bd c9 ab cc bd f0 e1 2f bd 54 b5 ab bd
       -0.08654213 -0.09993703 -0.04294008 -0.08384195
0003c0 58 49 f5 bd 78 f1 66 bd fb 61 96 bd 25 d0 95 bd
       -0.1197688 -0.056382626 -0.07342907 -0.07315091
0003d0 a1 a1 53 bd 31 26 d4 bd 48 ab a1 bd 3a 25 8b be
       -0.051667813 -0.10358847 -0.078939974 -0.2717684
0003e0 6a 8d c3 bd e0 00 aa bb 3b a1 8a bd dd 48 dc bd
       -0.09548457 -0.0051880926 -0.067690335 -0.10756085
0003f0 8a 8a c6 bd ea c5 bc bd 25 5f 66 be 83 ba d6 bd
       -0.09694393 -0.092174366 -0.22497232 -0.10484793
