onnx_models/eSR-TM_s2_K7_C16.onnx (onnx, 26152 bytes, 1 tensors)

filter.weight f4 [128, 1, 7, 7]
0.23367868 -0.41189465 -1.5843313 -0.5337902 -0.97425824 -0.5075428 -0.65207565 1.1630282
-1.192227 -5.0325527 -4.2832975 -2.8283389 -0.59601915 0.84612185 -2.914191 2.2616324
0.4948788 4.6344976 -2.1366994 -1.1712774 -0.30272675 0.100144416 -0.077197656 0.8117194
4.487743 -0.40631115 0.34797096 0.0036562055 -0.13922778 -0.13488808 -0.31073177 0.24437633
-0.014758649 -0.10925267 -0.10810212 0.093640864 0.30257407 -0.22759502 0.28974202 -0.34751147
0.12795165 0.052198883 -0.07315761 0.0035909985 -0.33556592 0.43415466 -0.085088 0.04092655
-0.050009724 -0.0056016757 -0.02480215 0.098449536 0.023488501 -0.043469075 0.0130074555 -0.03206873
0.027174808 -0.12117396 0.058236178 -0.23248537 0.05099021 0.04565796 0.028002013 0.035989206
-0.0036211577 0.17832182 0.165109 -0.20598741 0.02696129 -0.05349185 -0.08280713 0.29072785
-0.4988601 1.3367815 0.38467592 -0.20696206 0.041688565 -0.04953439 0.05009937 -0.27663648
-0.46937066 0.08770592 0.015769392 0.030591082 0.028668394 0.03229962 0.102222115 0.37905777
0.018281076 -0.076237425 0.033567075 0.027005175 -0.033849634 -0.031610336 -0.15804821 0.06319818
0.014868282 -0.015698839 0.0020702814 0.024008887 -0.024248593 -0.06715986 0.014067593 -0.012722767
0.101316765 -0.14787972 -0.016773308 -0.0469909 0.36828896 -0.2903163 0.23307908 -0.17959918
0.13106084 -0.019138739 0.15031466 -0.3591255 -0.122777306 0.1717895 -0.04772788 0.10950049
-0.34432098 0.37135866 0.43184528 -1.3223757 0.526654 -0.118564755 -0.04482562 -0.010364657
0.15814835 0.7997003 0.624781 -0.121129245 0.047126696 -0.021191247 0.17393288 -0.18003386
-0.18502314 0.08390125 -0.077149086 0.04065613 0.017495193 -0.041654766 -0.08021847 0.06937982
0.3019097 -0.17974344 0.06066184 0.10709073 -0.1283359 0.12963876 -0.04206223 0.03680772
0.056759182 0.0041664364 -0.11838441 0.013192564 -0.14464127 0.24694657 -0.1080581 -0.018260572
-0.056001645 0.17104337 -0.16811988 0.15733965 -0.68521684 -0.15020975 -0.15006116 0.07598758
-0.14602192 0.3600403 -1.4848771 3.3107097 0.34259707 0.09456886 0.10850389 0.010442566
0.2625986 -0.40899023 0.18566804 -1.3643419 0.06992329 -0.112683184 -0.033509832 -0.0718878
0.0519386 -0.18355918 0.16203335 0.17848887 -0.09958133 0.06895319 -0.155952 0.16585954
0.020103283 -0.12566684 -0.007590903 0.07280319 -0.026411485 0.04977781 -0.07395117 0.0658196
-0.016447471 -0.0016277123 0.005461871 0.06746431 -0.11902116 0.21260911 -0.1271613 -0.05693453
-0.020660112 0.014737013 -0.0760425 0.21421061 -0.5939855 0.62483054 -0.2939181 0.22280188
-0.052700736 0.026856573 -0.11927855 0.36148492 1.9225415 -0.82246524 0.24907923 -0.12861168
0.012611921 -0.0217465 -0.20306845 -0.7833631 0.52167153 -0.21724188 0.1577518 -0.01195897
-0.049021497 0.21243916 0.29549807 -0.23120214 0.0770401 -0.087930456 0.011827754 0.021261588
-0.06050057 -0.09349487 0.1248812 -0.049436852 0.03605348 -0.005736982 0.0674398 -0.12375707
0.1671913 -0.026235571 -0.037936576 -0.0389245 0.075429074 -0.03781016 -0.13887832 0.08831551
00000000: 7749 6f3e dbe3 d2be 5ecb cabf 79a6 08bf
00000010: fd68 79bf 53ee 01bf 6eee 26bf 1cde 943f
00000020: e59a 98bf ac0a a1c0 c610 89c0 8103 35c0
00000030: b694 18bf 719b 583f 1b82 3ac0 96be 1040
00000040: c160 fd3e ce4d 9440 afbf 08c0 6bec 95bf
00000050: 00ff 9abe 8418 cd3d ce19 9ebd d8cc 4f3f
00000060: 979b 8f40 0408 d0be 4029 b23e f39c 6f3b
00000070: ba91 0ebe 1a20 0abe 3c18 9fbe ca3d 7a3e
00000080: 43ce 71bc ddbf dfbd a564 ddbd c8c6 bf3d
00000090: fdea 9a3e ab0e 69be 1159 943e 06ed b1be
000000a0: c205 033e 7fce 553d a8d3 95bd f556 6b3b
000000b0: 4ccf abbe 8549 de3e 9e42 aebd 99a2 273d
000000c0: ffd6 4cbd 438e b7bb e12d cbbc e99f c93d
000000d0: f56a c03c a10c 32bd 391d 553c 805a 03bd
000000e0: b49d de3c 0e2a f8bd 0f89 6e3d a510 6ebe
000000f0: 1cdb 503d d703 3b3d 7a64 e53c 6b69 133d
00000100: f250 6dbb ff99 363e 5512 293e 5dee 52be
00000110: ecdd dc3c 451a 5bbd c996 a9bd 48da 943e
00000120: 976a ffbe a81b ab3f 3ef4 c43e dded 53be
00000130: a1c1 2a3d 93e4 4abd ff34 4d3d 4ca3 8dbe
00000140: 5a51 f0be 299f b33d d02e 813c 269a fa3c
00000150: fbd9 ea3c 9b4c 043d d459 d13d dc13 c23e
00000160: 32c2 953c 5e22 9cbd a17d 093d f539 dd3c
00000170: eaa5 0abd d779 01bd 64d7 21be 0c6e 813d
00000180: 189a 733c da9a 80bc 8fad 073b 49ae c43c
00000190: fca4 c6bc 1c8b 89bd c37b 663c 2773 50bc
000001a0: 2a7f cf3d c86d 17be 2d68 89bc 8879 40bd
000001b0: 5f90 bc3e 57a4 94be 48ac 6e3e d9e8 37be
000001c0: d034 063e d8c8 9cbc 16ec 193e 4cdf b7be
000001d0: ab72 fbbd 96e9 2f3e 4f7e 43bd cb41 e03d
000001e0: d74a b0be b922 be3e d31a dd3e 9b43 a9bf
000001f0: ccd2 063f 14d2 f2bd 129b 37bd 86d0 29bc
00000200: a4f1 213e 29b9 4c3f a6f1 1f3f 9c12 f8bd
00000210: ec07 413d 4499 adbc 761b 323e cc5a 38be
00000220: b576 3dbe 6bd4 ab3d 5700 9ebd 0b87 263d
00000230: 1452 8f3c 309e 2abd 9549 a4bd 0217 8e3d
00000240: e893 9a3e aa0e 38be 8d78 783d 6252 db3d
00000250: 7c6a 03be 06c0 043e 7249 2cbd b1c3 163d
00000260: 517c 683d 9a86 883b 8773 f2bd a025 583c
00000270: d71c 14be 90df 7c3e 914d ddbd 3297 95bc
00000280: fb61 65bd fe25 2f3e 9e27 2cbe a51d 213e
00000290: 5f6a 2fbf 96d0 19be a2a9 19be 609f 9b3d
000002a0: c586 15be 3457 b83e 7410 bebf abe2 5340
000002b0: e268 af3e 52ad c13d 4a37 de3d 4c17 2b3c
000002c0: 5373 863e 2b67 d1be c31f 3e3e c1a2 aebf
000002d0: f133 8f3d 71c6 e6bd 9b41 09bd e939 93bd
000002e0: 92bd 543d f0f6 3bbe 12ec 253e c9c5 363e
000002f0: 4cf1 cbbd 5537 8d3d e2b1 1fbe 15d7 293e
00000300: a4af a43c cfae 00be 1cbd f8bb d719 953d
00000310: e65c d8bc d1e3 4b3d b673 97bd 6dcc 863d
00000320: d9bc 86bc f658 d5ba 7ff9 b23b ba2a 8a3d
00000330: 5ec1 f3bd 34b6 593e 9236 02be 2f34 69bd
00000340: 653f a9bc 8373 713c 2cbc 9bbd 075a 5b3e
00000350: 6f0f 18bf e5f4 1f3f 6f7c 96be 2d26 643e
00000360: badc 57bd 5102 dc3c 5048 f4bd 8d14 b93e
00000370: d715 f63f 158d 52bf a00e 7f3e c8b2 03be
00000380: 3ba2 4e3c b725 b2bc 2df1 4fbe 7c8a 48bf
00000390: 448c 053f a874 5ebe b089 213e 8eef 43bc
000003a0: c4ca 48bd a789 593e 864b 973e 41c0 6cbe
000003b0: 33c7 9d3d e214 b4bd 32c9 413c c82c ae3c
000003c0: 72cf 77bd 3d7a bfbd b7c1 ff3d 4c7e 4abd
000003d0: d0ac 133d 4bfd bbbb e11d 8a3d 5974 fdbd
000003e0: 3234 2b3e fbeb d6bc 6263 1bbd 4c6f 1fbd
000003f0: 8f7a 9a3d d4de 1abd 1e36 0ebe c3de b43d
