onnx_models/eSR-TM_s4_K3_C16.onnx (onnx, 19496 bytes, 1 tensors)

filter.weight f4 [512, 1, 3, 3]
0	0x3f1aee86	0.6052021
1	0xbf2b388c	-0.6688316
2	0x3e7fefad	0.24993773
3	0xbf16f5b1	-0.58968645
4	0x3ff14496	1.8849056
5	0xbe9bd180	-0.30433273
6	0x3f15700b	0.5837409
7	0xbebbdf59	-0.36693838
8	0xbe8d8158	-0.27637744
9	0x3ef573f4	0.47940028
10	0x3eb48ed7	0.35265228
11	0x3e829308	0.255028
12	0xbe45dbbc	-0.19322103
13	0xbf9dbc26	-1.2323043
14	0xbf91ff75	-1.1406084
15	0x40d9f07b	6.8106055
16	0xc01cf56b	-2.4524791
17	0x410f46f4	8.954823
18	0x412ba423	10.727572
19	0x405d998c	3.4624968
20	0x41556894	13.338032
21	0x3fd02061	1.6259881
22	0x402ee23b	2.732558
23	0xc01d9ac2	-2.4625707
24	0xbf7887fe	-0.9708251
25	0xbf061ee0	-0.5239086
26	0x3fea194b	1.8288969
27	0x3d189051	0.037247006
28	0xbe9e855e	-0.30961126
29	0xc0da66e5	-6.8250604
30	0x3e4b7f28	0.19872725
31	0x4053158e	3.2981906
32	0x3f8463f1	1.0343
33	0xbf188257	-0.5957388
34	0x3f10f62a	0.56625617
35	0xc10a48b1	-8.642747
36	0x4119e81d	9.619168
37	0xbf8727c0	-1.0559006
38	0xbf91a326	-1.1377914
39	0x40f03d23	7.507463
40	0x40c07f85	6.0155663
41	0xc000d9b4	-2.0132875
42	0x40b6a26f	5.7073283
43	0x3f8131d5	1.0093333
44	0xbf7f02bf	-0.99613565
45	0x3efb6a8f	0.49104735
46	0xbe0126f7	-0.1261252
47	0xbe8ccbd3	-0.27499256
48	0xbf1606aa	-0.5860392
49	0x3f492de2	0.78585637
50	0x3f300b94	0.68767667
51	0x3eb526df	0.3538122
52	0x3eaf90d5	0.34290186
53	0xbedc0aae	-0.42976898
54	0x3da0a88f	0.0784465
55	0x3d39d319	0.045367334
56	0x3ccb4dbb	0.024817338
57	0xbe2e3860	-0.17013693
58	0x3f42b528	0.7605767
59	0x3e2496a3	0.16073088
60	0x3d42327c	0.047411427
61	0xbd91b24c	-0.071140856
62	0xbe55ad4b	-0.20866887
63	0x3f39d1f0	0.72585964
64	0x3f139445	0.57648116
65	0xbf588f7b	-0.84593934
66	0x3facfa52	1.3513892
67	0x3ee51be7	0.4474785
68	0xbfb76260	-1.4326897
69	0xbf0f2179	-0.5591045
70	0xbf31d3e6	-0.69463956
71	0xbf4e18c0	-0.80506516
72	0x3d2dbf6e	0.04241889
73	0x3e5692c0	0.20954418
74	0xbe671e46	-0.22570142
75	0xbf11cd8b	-0.5695426
76	0x3f9af0fc	1.2104793
77	0x3d5bc17c	0.053651318
78	0x3e92df0a	0.2868579
79	0xbe58ff49	-0.21191134
80	0x3e0d697e	0.13809773
81	0x4066bec9	3.6053946
82	0xbff1ad4d	-1.8881012
83	0x4063ecac	3.5613203
84	0xbe92ff6c	-0.28710496
85	0x3fecc8b9	1.8498756
86	0xbe9d34f2	-0.30704457
87	0x3d9280cf	0.071534745
88	0xbeb864d0	-0.36014414
89	0x3e65b938	0.22433937
90	0xbca8886b	-0.020572862
91	0x3f34e6d1	0.706647
92	0xbf30ac2e	-0.69012725
93	0x3ebc409e	0.3676805
94	0xbff29f42	-1.8954852
95	0x3fe6bc1f	1.802616
96	0xbed28683	-0.4111825
97	0x40001416	2.001226
98	0xbefb6757	-0.4910228
99	0x3fcaf41d	1.5855747
100	0xbe8e2461	-0.2776213
101	0x3f4237cc	0.7586639
102	0x3d38924d	0.0450614
103	0x3ec443a3	0.38332853
104	0xbd8d983b	-0.06913801
105	0xbec1dd7f	-0.378643
106	0x3f0f30b1	0.5593367
107	0xbf9000f0	-1.1250286
108	0xc13ba661	-11.72812
109	0xbeb731a6	-0.35780066
110	0x3ed16ff1	0.40905717
111	0x3f5f5bb0	0.8724928
112	0x408acf90	4.337837
113	0x3e06d9fa	0.13169089
114	0x3f4f2bd5	0.8092626
115	0x402a1d0a	2.6580224
116	0xbf7cd8cc	-0.98768306
117	0xbfa451c9	-1.2837459
118	0xc083be45	-4.1169763
119	0x3f4197d7	0.75622314
120	0x3f625388	0.8840871
121	0x4029e97a	2.6548753
122	0x3e6ef045	0.23333843
123	0xbf867f31	-1.0507566
124	0x3f1227d9	0.5709205
125	0xbe9dc0e7	-0.30811235
126	0x3fa067be	1.253166
127	0x3f792009	0.97314507
128	0x3f06d505	0.5266879
129	0xbf20d595	-0.628259
130	0x3e92460a	0.2856906
131	0x3e47314e	0.19452402
132	0xbebd5a96	-0.36983174
133	0x3c986cbc	0.018606536
134	0xbf5f51fe	-0.87234485
135	0xbd3abbb3	-0.04558916
136	0x3dd544ad	0.104134895
137	0xbd683891	-0.05669457
138	0x3d6dc298	0.058046907
139	0xbd6b092b	-0.05738179
140	0x3ed2c647	0.411669
141	0xbd59fd9e	-0.053220384
142	0x3efedf0f	0.49779555
143	0xbdd16a4e	-0.10225354
144	0x3ed43453	0.4144617
145	0xbe41f27e	-0.1894016
146	0x3e1e4fef	0.1546018
147	0xbea87803	-0.32904062
148	0x3f8a1f3c	1.0790782
149	0xbdb419d9	-0.087939925
150	0x3e169e05	0.14708717
151	0xbda07b89	-0.078360625
152	0xbe4edfd4	-0.20202571
153	0x3f9c3932	1.2204955
154	0xbf855a06	-1.0418098
155	0x3d8a2cfd	0.06746862
156	0xbf816cf1	-1.0111371
157	0x3fbd073f	1.4767836
158	0x3e8d7a9b	0.27632603
159	0x3f48592d	0.7826107
160	0x3dd1554b	0.102213465
161	0xbf6bb005	-0.9206546
162	0x3e222ae4	0.15836674
163	0x3e56b556	0.20967612
164	0xbd8fc9c9	-0.07020909
165	0x3dfc005b	0.12304755
166	0xbf82a57e	-1.0206754
167	0x3f96c5da	1.177913
168	0xbe6f4b99	-0.23368682
169	0x3f28ba9f	0.6590976
170	0xbeb02d6b	-0.3440965
171	0x3ead697e	0.33869547
172	0xc04e79d8	-3.2261868
173	0xbf523f55	-0.82127887
174	0x3faaa966	1.3332946
175	0x407dfd99	3.9686034
176	0x3b35055f	0.002762161
177	0xc040dd06	-3.0134902
178	0x3f03edaa	0.5153452
179	0x3f9c85bf	1.2228316
180	0xbe6b2a52	-0.22965363
181	0x3f116e32	0.5680877
182	0xbe38773b	-0.18014233
183	0x3e8f5af8	0.2799909
184	0xbdda5a1f	-0.106617205
185	0x3e67dd44	0.22643
186	0x3e028811	0.12747218
187	0xbe0fd468	-0.1404587
188	0x3c82980a	0.015941638
189	0x3d80bb2d	0.06285701
190	0xbe3ca0a7	-0.18420659
191	0x3d26b78b	0.040702384
192	0xbe8fad9a	-0.28062135
193	0x3f945e51	1.1591283
194	0x3d92ecbf	0.07174062
195	0x3db28dfc	0.087184876
196	0xbdae2800	-0.08503723
197	0x3d46c64d	0.048528958
198	0x3e848d49	0.25889042
199	0xbefe3f4e	-0.49657673
200	0x3f4414cd	0.7659424
201	0x3f0d0fa2	0.5510198
202	0x3f9368c3	1.1516346
203	0x3d41f76b	0.047355097
204	0xbffeecd3	-1.9916023
205	0xbdbeb2bf	-0.09311437
206	0x3e6bba7f	0.23020361
207	0x3eacc7b8	0.33746123
208	0xbf10e537	-0.56599754
209	0x3f0e4f31	0.55589586
210	0xbf089b00	-0.5336151
211	0x405bf61b	3.436896
212	0xbf4641ed	-0.77444345
213	0xbe938dfd	-0.28819266
214	0xbeb2113c	-0.34778774
215	0x3e09d053	0.13458376
216	0xbf8da933	-1.106726
217	0xbfab07f5	-1.3361803
218	0x3d85d1d2	0.06534161
219	0x3f4fdfb8	0.8120074
220	0x40167b4c	2.3512754
221	0xbf4a2327	-0.7895989
222	0x3a92db1a	0.0011204213
223	0x3e8d054b	0.275431
224	0xbf1dca61	-0.6163693
225	0xbe0c0fa0	-0.13677835
226	0x3e96ea36	0.29475564
227	0xbe064de6	-0.13115653
228	0x3e4414cc	0.19148558
229	0x3f51d52e	0.8196591
230	0xbfa7f7d8	-1.3122511
231	0xbdfa3fc1	-0.12219191
232	0x3f4f1501	0.80891424
233	0x3ef55eed	0.47923985
234	0xbdab08c6	-0.08351283
235	0x3e4c02ff	0.19923018
236	0x3ec1db54	0.37862647
237	0x3e22b963	0.15891032
238	0x3e670845	0.22561748
239	0xbf5070d5	-0.8142217
240	0xbe85e304	-0.26149762
241	0x3cd9ceca	0.026587863
242	0x3e3fdf28	0.18737471
243	0xbd8913d6	-0.066932365
244	0xbf1105c2	-0.5664941
245	0xba5eafa3	-0.00084948
246	0xbf9bbaac	-1.2166343
247	0x3fee3e8c	1.8612838
248	0x3e23dd34	0.16002351
249	0xbe2e7f04	-0.1704064
250	0x3f2ed308	0.6829076
251	0x3f1cd3b5	0.6126054
252	0x3ebe9dbf	0.37229726
253	0xbebfb3eb	-0.37441954
254	0x40905dc6	4.511447
255	0xbe865e38	-0.26243758
