onnx_models/eSR-TR_s4_K5_C1.onnx (onnx, 5946 bytes, 1 tensors)

filter.weight f4 [48, 1, 5, 5]
00000000: 1c96 483d 32ac e1bd 5854 efbb c191 bb3d
00000010: b903 00bc f402 e2bd 60f4 da3c f604 8c3e
00000020: cae3 13be 5564 8fbd 94cc bcbb 6e1d 8c3e
00000030: bc1d 6d3f a9f5 43be a9cf 0c3e 53f9 b83d
00000040: 020a 19be 54a7 3fbe 0c02 b23d 5c26 2cbc
00000050: 1fb7 01bc cfdd 90bd 1912 0d3e 5c35 24bc
00000060: 3831 a5bb 52ca 593c 838f 873c a454 bdbd
00000070: 7b53 ab3d af34 c9bb c17c b9bd 921a 8bbd
00000080: adc1 aa3e 9893 fdbd 5637 9dbd 653a 9c3d
00000090: a3e6 59bc f7c7 903f fb6d 3abe 41e0 043e
000000a0: 446f 0c3d cd0e d33b 0945 9bbe bd9b c33d
000000b0: 8e5e 6bbb 3098 33bc 31eb 19bd a61d f43d
000000c0: e881 a2bc 6ab7 02bc 2d70 09bc 85ca b23d
000000d0: 7785 b6bd b62d 073c 2e31 913c f7d9 98bd
000000e0: 1bad 02be 72d1 a73e 8bb5 60bd 7692 c4bd
000000f0: 9116 063e e4ed 35be d87b 913f 9881 d3bc
00000100: 397e 9f3d 1a9a 9eba 3585 b53d 6d66 9dbe
00000110: 7303 893c af9f 083d f1bc 51bc b1a8 66bc
00000120: 9356 f53d 72e2 30bd 459d 00bc bc68 14bc
00000130: 3a39 bd3d e4a6 87b9 e208 f9bd f374 5f3d
00000140: b14f 8fbd cdf4 10be 9665 843e 42d3 423d
00000150: 6d33 f3bd 94ec 0f3e 43a9 46be dfda 703f
00000160: db9d 833e 555c 6ebb 12b0 07bc 33d8 ae3d
00000170: e83b 4cbe 8b9b 0dbe 6aa0 bb3d 8812 1abc
00000180: 0c4a d2bb b2cc 0f3e 40ee 98bd 3dcd f7bb
00000190: f939 633c 6ee6 bcbd d6ba 9a3d f079 153d
000001a0: b1f1 35bc e787 713c b5c6 87bd 56b7 85bc
000001b0: 280b 1d3c b478 1abd 5fc9 bcbd f83c aa3e
000001c0: 95da 903f 03c6 9bbe a3ff f43d 1312 ab3d
000001d0: 5e75 02be 19a7 35be ce78 c03d 421d 9cbc
000001e0: 7d57 c4bb 8e00 a0bd b4d7 053e 326f 55bb
000001f0: c031 13bc 074e 04ba d6af a7bc 2047 f03c
00000200: 35c5 cc3c ec1d 33bc 7252 acbc ed3c 943b
00000210: 1e80 97bd f1d4 f83c cccb 19bd 1fc7 f43c
00000220: 713a 93bd d4db b53f c6dc 97be 6365 dc3d
00000230: de45 c53c 8c32 e93c ac48 97be 1ac9 df3d
00000240: cc2e 61bc 4e9b 35bc 7ff1 1abd 4220 dd3d
00000250: 58bb 6bbc 3481 3dbc a783 23bc 2560 c03c
00000260: ee75 003d d372 b9bc 3dd9 3e3a 5f29 22bd
00000270: e2b2 013d 3514 9cbd 4d82 143c 8f97 b2bc
00000280: a96e dd3d e2d6 96be 8725 b63f 8b61 9dbd
00000290: 7464 f93c 1807 30bc 6f94 d43d bc2f 98be
000002a0: 7db4 093d 0e49 c23c 2a38 6ebc 804d 0dbc
000002b0: fb86 db3d b19f 28bd 764d 1abc 0d31 19bc
000002c0: 8b13 083d 23cf a23d 9f46 c8bd 38cb 923c
000002d0: a032 25bd 6e8b 6f3c 4ac8 bcbc 80b2 65bd
000002e0: de6a 1b3c 123e f73d 6413 9cbe 3a76 913f
000002f0: dc51 a73e d980 bbbd 7710 78bc a877 b83d
00000300: b082 3abe f748 febd b5a2 b03d 6c98 45bc
00000310: 726c c93a cc4a 053e 6993 a1bd 6597 e7bb
00000320: df48 e7bb 0936 a1bd 864c 063e 695a ab3a
00000330: 1794 4abc aab6 af3d a574 febd bf22 3bbe
00000340: b70e b83d 23e2 75bc 3295 bcbd 5983 a63e
00000350: 99a1 913f a274 9cbe 0b7b f63d 5e91 273c
00000360: a0e1 69bd e50d b6bc 719d 643c 89e8 26bd
00000370: e3b5 933c 376b c8bd 6eed a43d dba0 093d
00000380: 3cda 17bc f31d 0dbc e5dc 28bd 53c0 dc3d
00000390: 63fc 18bc 15a7 60bc ee2a b83c 8bd3 093d
000003a0: a482 98be 5b8c d43d 046e 26bc 18a6 f23c
000003b0: bc87 9fbd 2e2a b63f b24f 97be b24a dc3d
000003c0: a230 b6bc 6a0d 1a3c b2c3 9bbd af8a ff3c
000003d0: 078c 21bd b22b 5b3a 47ba b9bc 3843 023d
000003e0: ecb8 c43c 570f 2cbc e5c8 2bbc 1cdb 6abc
000003f0: 777b dc3d d312 18bd cab1 20bc 124f 6bbc
0.04897128 -0.11019172 -0.0073037557 0.0915866 -0.007813388 -0.110357195 0.026727855 0.27347535
-0.14442363 -0.07001559 -0.0057616923 0.27366203 0.92623496 -0.1913668 0.13751091 0.0903193
-0.14945224 -0.18716174 0.08691797 -0.010507192 -0.007917195 -0.07073557 0.13776435 -0.0100224875
-0.0050412677 0.013292866 0.016547924 -0.092446595 0.08365532 -0.0061403136 -0.09056998 -0.06792177
0.33350888 -0.12381667 -0.0767657 0.076283254 -0.013299617 1.1311024 -0.18206017 0.12976171
0.0342858 0.0064409734 -0.30326107 0.09551189 -0.0035914513 -0.010961577 -0.03757781 0.119197175
-0.019837335 -0.0079783 -0.008388561 0.08730034 -0.08912175 0.008250644 0.017723646 -0.074634485
-0.12761347 0.32776982 -0.054860633 -0.09598248 0.13094546 -0.1776653 1.1365919 -0.025818631
0.07787747 -0.0012100369 0.08863298 -0.30742207 0.016725278 0.03335541 -0.012801395 -0.014078305
0.11979403 -0.043184705 -0.007849996 -0.009058174 0.09239431 -0.0002587355 -0.121598974 0.05455489
-0.06997622 -0.14155884 0.25858754 0.047564752 -0.11875043 0.14055091 -0.19400506 0.9408397
0.25706372 -0.0036370952 -0.0082817245 0.085373305 -0.19944727 -0.13828866 0.09161456 -0.009403832
-0.0064175185 0.14042929 -0.074673176 -0.007562308 0.013868802 -0.092236385 0.075551674 0.03649324
-0.011104987 0.014741874 -0.06629697 -0.016322773 0.009585179 -0.037712768 -0.09218096 0.3324964
1.1316706 -0.30424508 0.11962821 0.08353057 -0.12740085 -0.17739524 0.09398042 -0.01905692
-0.0059918747 -0.07812606 0.13070565 -0.0032567498 -0.008984029 -0.00050470274 -0.020469587 0.02933079
0.02499638 -0.010932427 -0.021035407 0.0045238645 -0.07397483 0.030374976 -0.03754787 0.029880105
-0.07188881 1.4207711 -0.29660624 0.107615255 0.024081167 0.028466485 -0.29547632 0.10927029
-0.013744067 -0.011084391 -0.037827965 0.10797168 -0.014387928 -0.011566449 -0.009980119 0.023483345
0.031362467 -0.02263776 0.0007280296 -0.039590236 0.031664737 -0.07621042 0.009064269 -0.021800784
0.108121224 -0.29460818 1.4230202 -0.076846205 0.030443408 -0.010743879 0.10379874 -0.29723918
0.033619393 0.023716476 -0.014539758 -0.0086244345 0.10719105 -0.04116792 -0.009417882 -0.0093500735
0.033221763 0.079496644 -0.09779095 0.017919168 -0.040331483 0.014620645 -0.023044724 -0.056078434
0.009485928 0.12072386 -0.30483544 1.1364205 0.3267964 -0.09155435 -0.015140644 0.090071976
-0.18213916 -0.12416261 0.08624784 -0.012060266 0.0015367402 0.13016814 -0.078894444 -0.007067608
-0.0070582475 -0.078716345 0.13115129 0.0013073209 -0.012364409 0.08579762 -0.12424592 -0.18274973
0.08987182 -0.0150075285 -0.09208144 0.32522085 1.1377441 -0.30557734 0.12035187 0.010227529
-0.05709994 -0.022223422 0.013953553 -0.040749107 0.018031066 -0.097860746 0.080530986 0.03360067
-0.00926834 -0.0086130975 -0.041226286 0.107788704 -0.009337517 -0.01371171 0.022481408 0.03364901
-0.2978717 0.10378333 -0.010158066 0.029620215 -0.07789561 1.4231622 -0.2955299 0.107564345
-0.022239987 0.009402612 -0.07605685 0.03119406 -0.03944018 0.0008360698 -0.022671832 0.031802386
0.024013959 -0.010501704 -0.010484909 -0.014334466 0.107657366 -0.037127327 -0.009808013 -0.014362114
