onnx_models/eSR-TM_s4_K7_C1.onnx (onnx, 7332 bytes, 1 tensors)

filter.weight f4 [32, 1, 7, 7]
000000 dc f3 95 bc d5 d7 1b 3c 5f 5c 99 bd cd 9c 91 3d
       -0.018304758 0.009511908 -0.074883215 0.071099855
000010 c4 d6 8d 3c 65 72 83 bc 50 82 b6 ba c1 4f 05 3c
       0.017314322 -0.016045759 -0.0013924334 0.008136691
000020 2e 70 82 3d 8e 6d 7c bd 14 fc 80 bd e7 90 90 3d
       0.06369053 -0.061627917 -0.0629808 0.07058888
000030 d1 85 41 bc 4b c4 f5 3c f7 4b 95 bd f2 55 84 bd
       -0.0118116895 0.030000826 -0.0728988 -0.06461705
000040 b9 31 20 3b 8b fd a2 3e 80 9a 1e be 87 a7 16 bb
       0.00244437 0.31834063 -0.15488625 -0.0022988038
000050 42 ff ac bd 4f 3c 8f 3d 00 fa 7b bd 49 cf a2 3e
       -0.08447124 0.06993925 -0.061517715 0.3179877
000060 64 0d 65 3f 43 84 53 be c0 e3 05 3e 03 77 46 3c
       0.8947356 -0.20655923 0.13075161 0.012113336
000070 13 1f 7d 3c 77 e4 90 3d 62 29 20 be 72 f3 51 be
       0.015449303 0.07074826 -0.15640786 -0.20503023
000080 9c 52 ee 3d 72 96 37 bd a9 fa 3d 3d e9 90 86 bc
       0.1163685 -0.04482121 0.046381626 -0.01642652
000090 c5 76 59 bc 83 cf 9c ba 0d 6e 03 3e 97 ab 31 bd
       -0.013272946 -0.0011963699 0.1283495 -0.04337653
0000a0 3f 3b d0 bb 37 74 6f bc ab 85 b7 ba 08 4d ea 3c
       -0.006354719 -0.01461511 -0.0014001628 0.028601184
0000b0 80 bf ad bd b5 4a 62 3c 56 15 3f 3d 4a 89 81 bc
       -0.08483791 0.013811757 0.046651207 -0.015812535
0000c0 23 b2 87 3c 01 7b 1d bc 8f aa bb bb 2b 93 c0 bc
       0.016564434 -0.009611846 -0.0057271193 -0.023507675
0000d0 60 9a 18 3d 6c 5a 35 3c 5e 20 8a bc 49 48 50 bb
       0.0372566 0.011068922 -0.016861137 -0.0031781367
0000e0 66 72 a8 3c 39 33 9d 3c 9c cd e4 3c 54 54 00 be
       0.020562362 0.019189464 0.027930073 -0.12532169
0000f0 55 0e 92 3d 87 d9 e9 bb 81 bf fc 3c 33 2d a3 bd
       0.0713164 -0.007136527 0.030853035 -0.079676054
000100 27 94 07 bd 40 86 b5 bd c1 69 c0 3e 2d c9 0f be
       -0.033100273 -0.08863497 0.37580684 -0.14041586
000110 6e 54 14 bc c2 2a af bd d2 b7 05 3d 05 48 5c 3d
       -0.009053333 -0.08553077 0.032646008 0.05377962
000120 1b 5c fa ba 52 b3 8f 3f 2e 29 45 be 3d f6 01 3e
       -0.0019100936 1.1226599 -0.1925399 0.12691589
000130 79 e7 21 3c 79 76 12 3d e4 33 0a 3b d8 a5 83 3c
       0.009881848 0.035757516 0.0021088058 0.016070291
000140 ec 9d a9 be 6d 6f ef 3d f1 a9 2c bd fa 0d 48 3d
       -0.33128297 0.11691175 -0.042154256 0.048841454
000150 36 c0 89 bc e1 e4 15 bc c0 2f cf bc 9e 0a 17 3e
       -0.016815286 -0.009148807 -0.025291324 0.14750144
000160 26 d2 2f bd 65 f1 a9 bb 3f a3 81 bc 91 80 fa 3b
       -0.042925023 -0.005186247 -0.015824912 0.007644721
000170 0c d6 69 3b 9a ca 09 bc 27 6f 1d bd 20 ae 21 3d
       0.003568056 -0.00841012 -0.03843608 0.0394727
000180 53 6e 65 bc 64 40 6c 3c 83 3e 59 bb cc 06 7b bc
       -0.014003354 0.014419649 -0.0033148832 -0.015321445
000190 e3 51 19 3c 82 d9 0e 3d 3d b7 a8 bc 7e 17 cd bb
       0.009357902 0.0348754 -0.020595187 -0.006258904
0001a0 37 1f 1b bc 5e 9b eb 3c 19 18 0f bc 3e 60 97 3d
       -0.009467891 0.028760608 -0.008733773 0.073914036
0001b0 90 95 fa bd ea b3 b1 3c 6d d9 aa 3c 14 bd bd 3c
       -0.12235558 0.021692235 0.02085563 0.023161449
0001c0 0e 8b aa bd 31 0d 23 bc fc 54 12 be 95 17 bd 3e
       -0.08327304 -0.009951876 -0.14290231 0.36932054
0001d0 0f a0 a0 bd 73 6e 0d bd e2 c3 a3 bd af 76 39 3c
       -0.07843029 -0.03452916 -0.07996346 0.0113198
0001e0 08 47 01 3e 84 76 3f be 76 6e 90 3f dd 88 73 bc
       0.12624753 -0.18697554 1.128371 -0.014864174
0001f0 62 0d 6b 3d e9 4e f6 3c 00 5e 3d 3d 70 fa 20 bd
       0.05738581 0.030066924 0.046232224 -0.039301336
000200 54 05 e1 3d 64 72 aa be 31 2c c9 3c cb ea cf b9
       0.109873444 -0.33290398 0.024557205 -0.0003965705
000210 06 6f 17 3d 48 22 87 bc 38 62 e7 bb 4b 5f 1f bd
       0.036971115 -0.016495839 -0.007061269 -0.038909238
000220 18 9b 18 3e 48 7e ff bc 68 f0 e8 bb 89 c3 84 bc
       0.14902914 -0.031188145 -0.007108737 -0.01620652
000230 f0 e1 69 3c 67 4a 4a bc d8 11 16 3d c0 25 20 bd
       0.014275059 -0.01234684 0.03663811 -0.0390985
000240 b4 43 bd bb 07 c9 2e 3b 17 36 f9 3b c3 02 8e ba
       -0.005775893 0.0026670115 0.007605325 -0.0010834563
000250 c8 a5 72 bc 20 c0 90 3c 2a 1a 86 3d 3a 79 92 bd
       -0.014810033 0.017669737 0.06547959 -0.071520284
000260 cc a8 30 3c 83 7e 97 bc b5 b5 e6 3c 3e 0c 4c bc
       0.010782432 -0.018492943 0.028162817 -0.012454091
000270 f4 6d 8d 3d 18 3f 61 bd 7a 0a 8e bd 66 c6 83 3d
       0.069057375 -0.05499181 -0.06935592 0.06434326
000280 f0 13 25 3c 59 41 a8 bd 50 b1 95 bb 15 ac 1a be
       0.010075554 -0.08215589 -0.0045682564 -0.15104707
000290 8f ba 9a 3e 95 36 91 3c db 56 8d bd cb 70 92 bd
       0.30220458 0.017726222 -0.06901332 -0.0715042
0002a0 2b dc 5e 3c bc 4c 06 3e 0b 29 54 be 6a b8 68 3f
       0.013602297 0.1311521 -0.20718782 0.90906394
0002b0 32 4e 9a 3e 62 4f 68 bd f4 cc 87 3d 1f 0e 31 3d
       0.30137783 -0.05671633 0.066308886 0.043226358
0002c0 14 ea 2d bd 55 f5 e6 3d 7c 73 56 be 52 d1 17 be
       -0.042459562 0.11277262 -0.20942491 -0.14825943
0002d0 a7 d0 8d 3d 1c c8 7d 3c 76 3e 75 bc df 2a f2 bb
       0.06924563 0.015489604 -0.014968505 -0.0073903645
0002e0 49 90 2b bd 26 a0 06 3e 60 98 01 bc ea 8c 3b bc
       -0.041885648 0.1314703 -0.007909864 -0.011447171
0002f0 44 68 76 bc 8b 46 7c 3c 7f e7 64 bc 55 40 32 3d
       -0.015039507 0.015397678 -0.013971209 0.043518383
000300 65 38 5c 3c 19 fe a8 bd 83 9d e9 3c 14 2b 15 bb
       0.01344118 -0.0825159 0.02851749 -0.0022761272
000310 fd 7c 29 bc 15 c4 b5 3c e9 56 a6 bd a3 16 09 3d
       -0.010344741 0.022188226 -0.081220455 0.033468854
000320 00 72 15 3d 96 30 88 bc 1c 6f f9 3b 60 36 df bb
       0.036485672 -0.01662473 0.007612122 -0.006811902
000330 42 5a a1 3c ff a2 00 bd 71 23 59 3d e3 bf 26 3b
       0.019696359 -0.031405445 0.053012315 0.0025443963
000340 4e f6 06 bc 85 47 7a 3b 15 97 b2 bc 51 f0 d4 3c
       -0.008237435 0.0038189602 -0.021800557 0.025993498
000350 61 74 b1 bd 89 85 63 bb 57 33 8b 3c 4b 02 d1 bc
       -0.08664776 -0.0034717044 0.016992254 -0.025513789
000360 91 0e 0a bc 1f e7 15 3d f8 45 ff bd 57 18 c0 3e
       -0.008426324 0.036597367 -0.12464517 0.3751857
000370 6c b7 8f 3f a2 57 a9 be 39 ab 18 3e 33 67 20 bd
       1.1227851 -0.3307467 0.14909066 -0.03916092
000380 fa 8a 24 3c 19 1d 93 3d 76 31 11 be e7 73 43 be
       0.0100429 0.07183284 -0.14179024 -0.19087182
000390 a0 c8 ec 3d bf a0 2e bd 85 db 1e 3d 1e d0 8a bc
       0.11561704 -0.04263377 0.03878357 -0.016944941
0003a0 20 37 04 bc dd 21 01 bc 5f ab 00 3e be 44 28 bd
       -0.008069783 -0.007881609 0.12565373 -0.041081183
0003b0 12 23 c4 bb de b7 53 bc 4c 74 71 bb e5 5e f1 3c
       -0.005985626 -0.012922255 -0.0036843 0.029464195
0003c0 cc af ae bd a3 9b 2a 3c 88 78 4c 3d e6 11 8e bc
       -0.08529624 0.010413083 0.049919635 -0.017342519
0003d0 50 5e 81 3c de dc b2 b9 c0 11 b9 ba 4d 45 27 bc
       0.015792042 -0.00034115365 -0.001411967 -0.010209394
0003e0 71 61 71 bc 82 4e 00 3d bd 7d 87 bc 74 e6 c3 3b
       -0.0147327045 0.03132487 -0.016539449 0.0059784
0003f0 67 b3 22 bb de 31 c8 3b 48 5e 42 bc cc ea 2a 3d
       -0.002482617 0.0061094603 -0.011863299 0.041727826
