onnx_models/eSR-TR_s2_K7_C16.onnx (onnx, 38782 bytes, 1 tensors)

filter.weight f4 [192, 1, 7, 7]
000000 f3 ae bf bc 04 bd 84 3d 1c 3b 9b bd 1e 7e d3 bc
       -0.023398852 0.06481364 -0.075796336 -0.025816973
000010 d3 24 e8 3c 0b 36 0e 3d 43 86 51 bc 70 ea 4a 3d
       0.028337872 0.03471951 -0.012788358 0.049539983
000020 0f 2d 1f be 21 de 82 3e ac b4 c8 39 b9 07 d6 bd
       -0.15544532 0.25560096 0.00038281584 -0.10450692
000030 71 b9 6d bc 3e ce d6 3a f0 19 9f bd a7 95 55 3e
       -0.014509545 0.0016388369 -0.07768619 0.20857869
000040 ff 11 08 bf e9 78 2c 3e 99 66 3a 3e cd b0 01 bd
       -0.5315246 0.16842999 0.182032 -0.03166275
000050 ee a7 8d 3c 3f 65 1b 3e 4a 0f ae be b7 06 b9 3f
       0.01729199 0.15175341 -0.3399604 1.4455174
000060 f8 75 bc 3c 51 e9 f9 bd ee f1 13 3c 43 79 da 39
       0.02300547 -0.12202705 0.0090298485 0.00041670547
000070 fe 43 93 bd 6f 63 c8 3b cd 04 71 be 24 19 24 3d
       -0.07190703 0.006115369 -0.23536988 0.04006304
000080 b7 96 e1 3d f8 d0 82 bc 50 6d 9e bb a3 ce 94 3c
       0.11015075 -0.015968785 -0.0048348084 0.018164938
000090 12 e7 ee bc e6 4a 78 3e ac b2 fe bd e1 43 9b bd
       -0.029162917 0.24247321 -0.12436423 -0.07581306
0000a0 5f 3b 2a 3d 41 ff a1 bc d5 28 72 bc b0 9a d8 3b
       0.041560527 -0.019775035 -0.014780243 0.006610237
0000b0 11 29 9c bd 53 24 96 3d df c6 ef 3c 8b d5 0b bd
       -0.0762502 0.07331147 0.029269634 -0.034139197
0000c0 23 c3 86 3c ba b4 be 3b 15 1d 52 be 3f a4 00 3e
       0.01645047 0.005819884 -0.20518906 0.12562655
0000d0 89 6f c9 3d 14 d6 e2 3d 2b 59 11 ba 74 d9 89 bd
       0.09835727 0.110759884 -0.0005544598 -0.06730929
0000e0 ed c6 a4 3d ef 3a 16 3d 7f 54 fc 3d c4 3c df be
       0.080457546 0.036677297 0.12320804 -0.43601048
0000f0 e7 e9 8a be 18 0e cf 3d 3f 2b f3 3c 9a d0 51 bc
       -0.27131578 0.1011011 0.029683707 -0.012806082
000100 66 2d ec bc 5a af de bd 16 8d 8a 3f 96 d4 33 3f
       -0.028830241 -0.108732894 1.0824306 0.70246255
000110 db 28 ba be 6a 55 10 3e a1 13 53 be 6c 0c 17 3f
       -0.36359295 0.14095083 -0.20612957 0.5900333
000120 33 ef c6 bf 4e 75 fb 3e 24 15 8c 3f bd 50 a6 be
       -1.5541748 0.49112934 1.0943952 -0.32483473
000130 16 2c 1d 3e 99 4c d3 bd 98 19 54 3d b1 39 46 3e
       0.15348849 -0.10317344 0.05178222 0.19357945
000140 1a 98 1d bf 2c 31 37 be d2 d6 06 3d 43 f3 58 bd
       -0.61560214 -0.17889851 0.032919712 -0.052966367
000150 9c 6f c0 3d 10 3b 5b be fc fc 91 3e dc 3f 7a 3e
       0.09396288 -0.2140925 0.28513324 0.24438423
000160 67 4a a3 3d 9d 0c b8 bd dc 8d b0 3c 37 0a af 3d
       0.079731755 -0.08986781 0.021552019 0.0854687
000170 b6 b6 5a be e8 53 da 3d e0 07 ec bd 89 9e 2c bb
       -0.21358761 0.10660535 -0.115249395 -0.0026339612
000180 bb f8 cb 3d 63 d9 e9 bc ce b2 91 3b 7d a0 37 3c
       0.09959551 -0.02854604 0.004446364 0.011207697
000190 eb d5 0d bc be 82 72 bd dd bb 09 3d 67 83 8e bc
       -0.008656959 -0.059206717 0.033626426 -0.017396642
0001a0 89 d3 ae 3c 92 6d 0c bc 82 2f 44 bc 59 b5 42 3c
       0.021341102 -0.0085710455 -0.011974217 0.011884057
0001b0 df 64 12 3e 04 7e 2e bd 15 f8 2b 3c 30 57 a0 bc
       0.14296292 -0.042600647 0.010496159 -0.019572824
0001c0 b9 97 55 3b ae 27 fe 3c 12 9c 01 bd c9 27 91 be
       0.0032591654 0.03102478 -0.03164298 -0.28350666
0001d0 04 dd fe 3d fd e8 2b bd 34 30 04 3d e0 97 52 3c
       0.12444499 -0.04197024 0.032272533 0.012853593
0001e0 36 5c f0 bc 7d a0 b1 3d d0 2b 93 3f 2c ec 7d be
       -0.029340845 0.08673189 1.1497746 -0.24797124
0001f0 a5 37 03 3e 81 df 59 bd e2 a4 a3 bb 9d 69 96 bb
       0.12814195 -0.053191666 -0.004994021 -0.004590227
000200 dc de 2a 3b 9e 47 ce 3d 07 31 37 bd 31 fe 32 3c
       0.0026072776 0.10072254 -0.04472449 0.010924862
000210 78 b3 0f bc ea 52 df 3b 91 9f 8d bb 4f e6 49 bc
       -0.008770816 0.006815304 -0.0043220003 -0.012322976
000220 f6 56 83 bc 84 9b e8 3c b8 d5 28 bc 0f 9d e9 3b
       -0.016032677 0.028394468 -0.010304861 0.0071293185
000230 42 48 3c bc dc fb d0 3b 4c dc f8 b9 f3 40 38 3c
       -0.011491837 0.00637768 -0.0004746638 0.011245954
000240 b4 28 30 3a 0b 87 f3 bb c6 2c 59 3b 2a 7c f0 3c
       0.00067199324 -0.00743187 0.003313826 0.029356081
000250 ae f2 64 bd 71 1b ef 3c fd ed 89 3d 0c 01 a9 bd
       -0.0558955 0.02918789 0.06734846 -0.08252153
000260 e5 03 57 bb 35 9b 58 3b b0 d1 01 bd be 5e c2 3d
       -0.0032808718 0.0033051495 -0.031694114 0.09490727
000270 8b 8d b4 bd 72 e7 f8 bd 05 b2 53 3e c9 66 09 ba
       -0.0881606 -0.1215352 0.20673378 -0.00052414514
000280 95 2a c0 b9 e6 26 ae b9 35 3c ab bd 4f 67 fc 3d
       -0.0003665282 -0.00033216848 -0.08361093 0.12324392
000290 cc 28 9d 3d dc cb 8a be fc 23 4e 3d 07 ed 0d bd
       0.07673797 -0.27108657 0.050327286 -0.034649875
0002a0 d7 4a a8 ba b9 c6 28 3d 99 16 e3 bd 2b 60 45 3c
       -0.0012839687 0.04120514 -0.110882945 0.012046854
0002b0 72 b9 af 3f ef 41 8e be 7c f0 9e 3d 45 45 0d 3d
       1.3728468 -0.27784678 0.077607125 0.03448989
0002c0 d5 db 7d bd fd c2 2d 3e bc e1 a0 3d ef 06 c1 be
       -0.061977226 0.16968913 0.078555554 -0.37700602
0002d0 e8 c1 51 3e f1 7e 24 bd 5b 66 c1 3b 8d 74 aa 3b
       0.20484126 -0.040160123 0.0059020943 0.005201882
0002e0 21 26 a2 bd 3e f8 9f bc e2 d8 f9 3d df 0e 56 bd
       -0.07917429 -0.01952755 0.1219957 -0.052260276
0002f0 f1 ea 80 3a 24 b1 ac 3c 09 c9 53 bd 10 07 86 3d
       0.0009835643 0.021080561 -0.051705394 0.06544316
000300 b4 25 2a bb 57 44 b7 bd f3 37 64 3d 3f 97 ad 3b
       -0.0025962414 -0.08948582 0.05571742 0.005297571
000310 06 78 47 bb f9 3c 6e 3c b1 a7 21 bc 2a c2 b0 3d
       -0.003043653 0.014540904 -0.009866641 0.08630784
000320 0d 07 81 bd fe c5 ff 3b 50 d6 c8 b9 83 ef e4 38
       -0.06300173 0.007805585 -0.00038306648 0.000109165
000330 cb 89 81 bd 47 59 1c 3d b4 72 26 be e0 04 7f bb
       -0.0632511 0.03817108 -0.16254693 -0.0038912818
000340 8a 9d 30 3d 1e 6e e4 bc 06 53 dc bb cf b8 f0 3d
       0.04311899 -0.02788454 -0.0067237644 0.117539994
000350 41 9b fb bd 6a 62 a9 3f 97 f8 79 be 23 c5 e2 3d
       -0.12285472 1.3233159 -0.24411236 0.11072757
000360 da 32 06 bd c5 3c de bc cf 8a af 3c 27 8b 86 bd
       -0.03276334 -0.027128587 0.021428494 -0.0656951
000370 1e e6 cc bd 37 1b 47 3e a8 61 ea bd 05 c3 4b 3d
       -0.10004829 0.19443975 -0.11444408 0.049746532
000380 36 7c 73 3c ce b9 bb bd b5 25 46 3e da 21 db bc
       0.014861157 -0.09166299 0.19350322 -0.02674954
000390 d1 94 06 3b 5d 63 19 3c 70 0a a4 bb 9f 96 cb bb
       0.0020535479 0.009362069 -0.005006127 -0.006213024
0003a0 23 3f 0e 3d ee 73 a5 bd 87 1a c9 3c a4 1d dc bc
       0.03472818 -0.080787525 0.024548782 -0.026869603
0003b0 a4 0d 70 3c ae e5 6c bc 77 91 92 3b 78 d2 28 bc
       0.01465169 -0.014459057 0.004472907 -0.010304086
0003c0 9e 91 a3 3c d2 dc 32 ba e2 2e 28 bc 3c 44 09 3b
       0.019966897 -0.0006823066 -0.010265084 0.0020945212
0003d0 cf 54 78 3c 7b 0c 1f 3c b6 d7 f0 bb d5 25 88 3d
       0.015156939 0.009707565 -0.0073499335 0.06647841
0003e0 56 9e 11 be a5 e4 2a 3e 63 f7 4e bc eb 28 04 bc
       -0.14220557 0.16688783 -0.012632224 -0.008066396
0003f0 ae 0f 61 3d a8 9b 62 bc 6d 2a 32 3e 4e ca 4d be
       0.054946594 -0.013831057 0.17398997 -0.20096704
