onnx_models/eSR-MAX_s4_K5_C1.onnx (onnx, 2181 bytes, 1 tensors)

filter.weight f4 [16, 1, 5, 5]
0.049727652 -0.11094883 -0.006713379 0.09150697 -0.007831852 -0.11171509 0.026563184 0.27369028
-0.14610703 -0.070409864 -0.0065736333 0.2747145 0.9252658 -0.19202878 0.13810019 0.091247045
-0.14618799 -0.18960391 0.08775535 -0.008974754 -0.00763265 -0.07007244 0.13734552 -0.00928625
-0.005925442 0.01423796 0.015643591 -0.09296799 0.08370726 -0.0062291864 -0.09186888 -0.0683488
0.33391652 -0.124293394 -0.077393204 0.076089546 -0.014137556 1.1306261 -0.1822071 0.12957428
0.035493277 0.008648467 -0.30439818 0.09591704 -0.002846796 -0.009947879 -0.0375511 0.119329154
-0.018325644 -0.008750484 -0.007891915 0.086459376 -0.090975076 0.00915788 0.017504191 -0.07658696
-0.12703508 0.3279376 -0.055909283 -0.096094936 0.1304607 -0.1795565 1.1366494 -0.025930211
0.07733193 -0.00014389248 0.08943622 -0.30705538 0.017403541 0.033309452 -0.011012445 -0.015228023
0.120798856 -0.04127666 -0.008465436 -0.0083839325 0.091933236 -0.001956156 -0.12030518 0.054772116
-0.07153822 -0.14159346 0.25798965 0.046314158 -0.119222954 0.1403539 -0.19613981 0.9406043
0.25703737 -0.0037728702 -0.0070231273 0.08488156 -0.1967431 -0.13815938 0.09230098 -0.007876526
-0.007711183 0.14121434 -0.07321772 -0.008222847 0.01416367 -0.092294246 0.07575701 0.035626777
-0.010255709 0.014452055 -0.066162646 -0.015113599 0.009408231 -0.038198866 -0.0929831 0.33440647
1.1306611 -0.30483884 0.11997803 0.08376948 -0.12490098 -0.18020228 0.09400836 -0.018371008
-0.0061617717 -0.07790379 0.12989989 -0.0028570795 -0.009026171 -3.729761e-05 -0.021165675 0.028872298
0.02490685 -0.0108047165 -0.020753633 0.004192359 -0.07140037 0.030855408 -0.03863173 0.029343406
-0.071511894 1.4199592 -0.2967565 0.10780971 0.025321621 0.029947773 -0.29678103 0.10872971
-0.013663631 -0.010395847 -0.03810594 0.107776105 -0.013074166 -0.0113441665 -0.009801348 0.023364479
0.030448187 -0.022449546 0.0005211078 -0.039827954 0.032047253 -0.07508502 0.008346919 -0.021829708
0.108019605 -0.29597124 1.4227492 -0.0766956 0.030183671 -0.010172759 0.10392354 -0.2961083
0.033791944 0.022985803 -0.013551677 -0.010363232 0.10817822 -0.040128853 -0.009598651 -0.008709055
0.033209067 0.07847802 -0.097149715 0.01800598 -0.040646944 0.014582248 -0.02352607 -0.056707874
0.010245917 0.12114495 -0.30682266 1.1370345 0.3270813 -0.0913175 -0.0152811725 0.089417964
-0.18015765 -0.12414559 0.08578874 -0.0113662975 -0.000520814 0.13079816 -0.07732847 -0.0076789344
-0.008105654 -0.077785335 0.13135365 0.0002642366 -0.01120701 0.08607368 -0.12412676 -0.18131356
0.08990091 -0.015750105 -0.09173944 0.32781678 1.1365163 -0.3063986 0.120932095 0.009528578
-0.05655107 -0.024813931 0.014245524 -0.040723965 0.01685269 -0.09678705 0.07811905 0.033460245
-0.008656724 -0.0101168975 -0.04117879 0.10792292 -0.0094679855 -0.013699889 0.023076298 0.033585623
-0.29711062 0.10401095 -0.010717621 0.030653197 -0.0764764 1.4218498 -0.29578784 0.107558124
-0.02215468 0.00801771 -0.07617713 0.03144087 -0.039925862 0.00064972875 -0.021785567 0.030515933
0.023172088 -0.010090196 -0.011389953 -0.014417781 0.108096406 -0.037772436 -0.0108376695 -0.013690121
00000000: 39af 4b3d 2439 e3bd e8fb dbbb 0268 bb3d
00000010: 2b51 00bc e2ca e4bd 099b d93c 2221 8c3e
00000020: 159d 15be 0c33 90bd a267 d7bb 61a7 8c3e
00000030: 38de 6c3f 31a3 44be 236a 0d3e bbdf ba3d
00000040: 4eb2 15be 8727 42be 14b9 b33d d90a 13bc
00000050: 4f1b fabb 2482 8fbd 4ea4 0c3e 5b25 18bc
00000060: 362a c2bb 5546 693c fd26 803c 0066 bebd
00000070: b66e ab3d 341e ccbb c025 bcbd 75fa 8bbd
00000080: 1bf7 aa3e 898d febd 5480 9ebd d6d4 9b3d
00000090: 35a1 67bc 5bb8 903f 7f94 3abe 1faf 043e
000000a0: 6661 113d 4db2 0d3c 14da 9bbe 2770 c43d
000000b0: 5091 3abb 6efc 22bc 2fcf 19bd d862 f43d
000000c0: a91f 96bc 315e 0fbc 174d 01bc 9d11 b13d
000000d0: 2451 babd ef0a 163c f364 8f3c a0d9 9cbd
000000e0: 7c15 02be 70e7 a73e 2201 65bd 6ccd c4bd
000000f0: 7d97 053e a9dd 37be ba7d 913f 986b d4bc
00000100: 3460 9e3d d8e1 16b9 562a b73d 5d36 9dbe
00000110: df91 8e3c 7e6f 083d 8b6d 34bc f57e 79bc
00000120: 6465 f73d b711 29bd 9db2 0abc c35c 09bc
00000130: 7e47 bc3d da32 00bb 9062 f6bd ba58 603d
00000140: a182 92bd e0fd 10be 3817 843e eab3 3d3d
00000150: 2a2b f4bd efb8 0f3e e0d8 48be 72cb 703f
00000160: 679a 833e 4242 77bb 4322 e6bb 62d6 ad3d
00000170: 0677 49be a779 0dbe 4c08 bd3d 8b0c 01bc
00000180: 17ae fcbb 7e9a 103e 2cf3 95bd 1fb9 06bc
00000190: bd0e 683c c404 bdbd 7e26 9b3d 62ed 113d
000001a0: 9007 28bc 50c8 6c3c 4880 87bd 079f 77bc
000001b0: fb24 1a3c 6a76 1cbd ec6d bebd 5337 ab3e
000001c0: 81b9 903f d613 9cbe 0bb7 f53d 558f ab3d
000001d0: 16cc ffbd f286 38be 7487 c03d cc7e 96bc
000001e0: b0e8 c9bb 068c 9fbd 7a04 053e d73d 3bbb
000001f0: 81e2 13bc 0170 1cb8 a363 adbc 9985 ec3c
00000200: 7309 cc3c 4406 31bc 8603 aabc 0e60 893b
00000210: 5b3a 92bd 7bc4 fc3c 4e3c 1ebd 9561 f03c
00000220: d474 92bd 39c1 b53f 78f0 97be 56cb dc3d
00000230: 4a6f cf3c 0855 f53c aff3 97be afad de3d
00000240: 6cdd 5fbc 5853 2abc f914 1cbd b8b9 dc3d
00000250: 0735 56bc e2dc 39bc d595 20bc dd66 bf3c
00000260: 7a6e f93c 1ce8 b7bc f49a 083a a322 23bd
00000270: fb43 033d 2dc6 99bd 84c1 083c 37d4 b2bc
00000280: 6239 dd3d 8b89 97be a51c b63f 9512 9dbd
00000290: bf43 f73c a5ab 26bc ddd5 d43d 829b 97be
000002a0: 6c69 0a3d b94c bc3c da07 5ebc 8cca 29bc
000002b0: 8b8c dd3d 275e 24bd a943 1dbc 6db0 0ebc
000002c0: 3b06 083d 16b9 a03d 6ef6 c6bd 4781 933c
000002d0: 697d 26bd 62ea 6e3c bfb9 c0bc 8446 68bd
000002e0: 7ede 273c d81a f83d dc17 9dbe 598a 913f
000002f0: 3377 a73e ab04 bbbd e25d 7abc c420 b73d
00000300: 3f7b 38be 0b40 febd 02b2 af3d b539 3abc
00000310: 3c87 08ba f4ef 053e 645e 9ebd 929f fbbb
00000320: 94cd 04bc eb4d 9fbd 9281 063e 3c89 8a39
00000330: 9b9d 37bc 6647 b03d 2c36 febd 43aa 39be
00000340: f81d b83d 5d06 81bc e3e1 bbbd 9ad7 a73e
00000350: 5e79 913f 47e0 9cbe 3fab f73d c11d 1c3c
00000360: 18a2 67bd 9646 cbbc 0f66 693c 2cce 26bd
00000370: a70e 8a3c 4a38 c6bd e1fc 9f3d 9c0d 093d
00000380: efd4 0dbc 58c1 25bc 17ab 28bd b106 dd3d
00000390: 9c1f 1bbc 8075 60bc 810a bd3c 1491 093d
000003a0: e21e 98be b103 d53d f698 2fbc 6a1c fb3c
000003b0: a99f 9cbd 2dff b53f 8171 97be 6f47 dc3d
000003c0: bb7d b5bc b75c 033c c102 9cbd 24c8 003d
000003d0: 4d89 23bd 8f52 2a3a a577 b2bc 8dfc f93c
000003e0: 64d3 bd3c 5951 25bc ed9c 3abc 8e38 6cbc
000003f0: a661 dd3d 45b7 1abd 7b90 31bc 874c 60bc
