onnx_models/eSR-CNN_s4_C4_D7_S12.onnx (onnx, 61009 bytes, 5 tensors)

filter.0.weight f4 [7, 1, 5, 5]
0	0xbceb4e35	-0.028723815
1	0xbd219fe0	-0.03945911
2	0x3d9dd231	0.077061065
3	0xbc8f531a	-0.01749568
4	0x3c5012d0	0.012699798
5	0xbc0bf8c8	-0.008543201
6	0x3e2340aa	0.15942636
7	0xbcdb7be6	-0.026792478
8	0x3ca65201	0.020302774
9	0xbcf7f07a	-0.030266035
10	0x3d2e095e	0.042489402
11	0xbe681b6e	-0.22666714
12	0x3f063776	0.52428377
13	0xbda4eff1	-0.08053578
14	0x3da30162	0.07959248
15	0xbd234488	-0.03986028
16	0x3d0a925d	0.03383099
17	0xbe9a0647	-0.30082914
18	0x3d6555ca	0.055990018
19	0x3b32b93b	0.002727105
20	0xba2a729a	-0.00065020623
21	0x3cd717d0	0.026256472
22	0x3d3c322b	0.04594628
23	0xbc4858d4	-0.0122282095
24	0xba0155b4	-0.000493373
25	0xbc57d57e	-0.013173459
26	0x3e704404	0.23463446
27	0x3b89854b	0.004196798
28	0x3c507322	0.012722762
29	0xbd5930ac	-0.053024933
30	0x3e05a1c0	0.13049984
31	0xbf254d00	-0.6457062
32	0xbfaf642b	-1.3702444
33	0x3f12e1a6	0.5737556
34	0xbe133c87	-0.14378558
35	0xbda31355	-0.07962672
36	0xbf52bc15	-0.8231824
37	0x3ff18ed9	1.8871719
38	0x3db03ba3	0.08605125
39	0x3de9ca7a	0.114155725
40	0x3e0d2167	0.13782273
41	0x3eaed090	0.34143496
42	0xbe182c17	-0.14860569
43	0xbea73394	-0.32656538
44	0x3d418f97	0.04725608
45	0xbc993d16	-0.018705886
46	0xbd9d92ac	-0.07693991
47	0x3e052fa5	0.13006456
48	0x3b02a6b8	0.0019935798
49	0xbd05d41c	-0.032672986
50	0xbbfe0154	-0.007751623
51	0xbc2160da	-0.009849751
52	0x3daeca30	0.08534658
53	0xbcaffc8c	-0.021482728
54	0xbd1b3586	-0.03789284
55	0x3cebcde6	0.028784703
56	0xbe643c2e	-0.22288582
57	0xbd7a535e	-0.06111466
58	0x3e1118fe	0.1416969
59	0x3cbd02c5	0.02307261
60	0xbd0ef22e	-0.03489893
61	0xbba57b76	-0.005050118
62	0x3ed23fbd	0.41064253
63	0xbd9d592e	-0.07683025
64	0x3e244103	0.16040425
65	0x3da4ce3d	0.08047149
66	0x3dd50c5b	0.10402747
67	0xbf1694a4	-0.5882056
68	0xbe82557f	-0.25455853
69	0x3d4fb92a	0.050713696
70	0xbd5e72fa	-0.05430887
71	0x3d0c546f	0.03426021
72	0x3cd8eca5	0.026480028
73	0x3d75ed78	0.06004092
74	0xbcd63525	-0.026148388
75	0x3c49941c	0.012303378
76	0x3c0ddc2a	0.008658448
77	0xbbc93b4f	-0.0061411033
78	0x3cf7a1b7	0.030228479
79	0xbc4fc6f1	-0.012681709
80	0xbb3cb96c	-0.0028797043
81	0xba64d3ac	-0.00087290513
82	0xbdebbf2f	-0.11511075
83	0xbdc4a8d1	-0.09602512
84	0xba2e85ba	-0.00066575
85	0x3bf4357a	0.007452664
86	0xbd7a2881	-0.061073784
87	0x3f669aeb	0.90080136
88	0xbde67637	-0.112530164
89	0x3d1d5870	0.03841442
90	0x3bb5759c	0.005537702
91	0xbcabf10e	-0.020988967
92	0xbddfb4b6	-0.1092314
93	0xbc1cc729	-0.009568968
94	0x3b18f9c6	0.0023342236
95	0xbb647286	-0.00348583
96	0xbba4d17a	-0.0050298544
97	0x3d059aca	0.03261832
98	0xbc22fd0d	-0.009948027
99	0xbb90a424	-0.0044140983
100	0xbc881fed	-0.016616786
101	0xbc3e4cc1	-0.011614979
102	0x3daf896e	0.085711345
103	0x3bc5b302	0.0060333023
104	0xbd462683	-0.04837657
105	0xbd9ab4fb	-0.075540505
106	0x3de8077f	0.11329555
107	0xbf1c2db3	-0.6100723
108	0xbdd259fe	-0.10271071
109	0x3da3970f	0.079877965
110	0x3e8578b8	0.26068664
111	0x3e084fb4	0.13311654
112	0x3f9cd344	1.2251973
113	0xbf94891b	-1.1604341
114	0x3e1fd1a7	0.1560732
115	0x3b5bae3f	0.0033520607
116	0xbe6c9fa2	-0.2310777
117	0x3e953522	0.291421
118	0xbd3842f2	-0.04498572
119	0xbdd02637	-0.10163539
120	0xbcf74545	-0.030184397
121	0xbd0df5c5	-0.034658212
122	0x3e3addb8	0.18248641
123	0xbccecd28	-0.02524431
124	0x3ca392a8	0.019967392
125	0x3d222abd	0.03959154
126	0xbdcbb8c9	-0.09947354
127	0x3e7d7c8c	0.24754542
128	0xbd4fed8c	-0.05076365
129	0x3c6ed0e9	0.014576175
130	0x3a81710f	0.0009875613
131	0x3e42c6f1	0.19021203
132	0xbd8e95a0	-0.069621325
133	0xbe0db52b	-0.13838641
134	0xbd0c4075	-0.03424116
135	0x3e90fd0a	0.28318053
136	0xbe8969fe	-0.26838678
137	0xbac26e04	-0.0014833813
138	0x3d84c938	0.06483692
139	0x3dc9ca8a	0.098530844
140	0xbdddad44	-0.108240634
141	0xbe26015c	-0.16211456
142	0xbdd33a1b	-0.10313817
143	0x3e1fdc57	0.15611397
144	0xbd7a1883	-0.061058532
145	0x3c9db1b7	0.01924978
146	0x3c180257	0.009277902
147	0x3dcee68b	0.10102566
148	0xbc85c680	-0.016330004
149	0xbc39f2c8	-0.0113493875
150	0x3b0783bc	0.0020677885
151	0x3e21512c	0.15753621
152	0xbc494d49	-0.012286493
153	0xbc579007	-0.013156897
154	0xbb8fe781	-0.004391611
155	0x3d23ec68	0.040020376
156	0xbd85670e	-0.06513797
157	0xbd7201c8	-0.05908373
158	0x3d21965f	0.039450046
159	0x3cbf6bf8	0.023366913
160	0xbdd2c3a0	-0.10291219
161	0xbec8c40d	-0.39212075
162	0x3f2755cc	0.6536529
163	0xbe8429b3	-0.25813064
164	0xbdabbb3e	-0.08385323
165	0x3d22a969	0.039712343
166	0xbdc3b6f3	-0.09556379
167	0xbd9441dc	-0.07239124
168	0x3d8912df	0.066930525
169	0x3d76f6ea	0.06029407
170	0xbd39f635	-0.045400817
171	0x3d3b68aa	0.045754112
172	0xbd30d25b	-0.04316936
173	0x3c1dfdea	0.009643057
174	0xbd082be0	-0.033244967

filter.0.bias f4 [7]
0	0xbe19c281	-0.15015604
1	0x3c2fd991	0.010733024
2	0x3d06704c	0.03282194
3	0xbeb35990	-0.35029268
4	0xbd2af009	-0.04173282
5	0xbd87996f	-0.06621062
6	0x3d8caff3	0.06869497

filter.2.weight f4 [12, 7, 3, 3]
0	0x3d2f224d	0.04275732
1	0xbe2328e2	-0.15933564
2	0xbc440d3f	-0.011966049
3	0xbe06233d	-0.1309938
4	0x3f1b07c1	0.60558707
5	0xbdd9ef20	-0.106413126
6	0xbd666919	-0.056252573
7	0xbd100076	-0.03515669
8	0xbcec8306	-0.02887107
9	0xbd110703	-0.035407078
10	0x3cbe9003	0.02326203
11	0x373afe91	1.1145735e-05
12	0x3cf4b15b	0.029869726
13	0xbc677811	-0.014127747
14	0xbcde21fe	-0.027115818
15	0x3cd49723	0.025950974
16	0xbc14c0b3	-0.009079146
17	0xbcb48914	-0.02203802
18	0x3db02a0f	0.08601772
19	0xbdaa592e	-0.08317791
20	0xbd56d2f7	-0.052447286
21	0x3d5cdad8	0.053919643
22	0xbd991e7f	-0.0747652
23	0xbc90698e	-0.017628457
24	0xbcb3f947	-0.02196945
25	0x3c1de148	0.009636231
26	0x3ce21a88	0.027600542
27	0xbcc13ac2	-0.023587588
28	0x3da0d60a	0.07853325
29	0xbc0a3cbe	-0.008437334
30	0x3e10d648	0.14144242
31	0x3e638c68	0.2222153
32	0x3cc5cbcc	0.02414503
33	0x3ce6484e	0.02811065
34	0x3dac1a61	0.08403469
35	0x3c30a918	0.010782503
36	0x3c36b1aa	0.011150757
37	0xbba2a65c	-0.0049636792
38	0xbd0331a8	-0.032029778
39	0x3d03ea6b	0.03220598
40	0x3cd6766c	0.026179515
41	0x3c50a284	0.012734059
42	0xbcf0a120	-0.029373705
43	0xbc2d4664	-0.010575864
44	0xbc4c1725	-0.01245669
45	0xbc3ff7b9	-0.0117167765
46	0x3d8b7adf	0.06810545
47	0xbc5691dc	-0.013096299
48	0xbce44313	-0.027864015
49	0xbdc3a79f	-0.095534556
50	0x3cef76c5	0.029231438
51	0x3c43f3cc	0.011959981
52	0x3d6721de	0.056428783
53	0x3c60b2af	0.0137144765
54	0x3b43966c	0.0029844297
55	0xbb995ee5	-0.0046805018
56	0xbd68b7c6	-0.056815885
57	0xbcbb5516	-0.02286772
58	0xbd4f657c	-0.050633892
59	0x3d3e83a5	0.046512265
60	0x3c2ed774	0.010671485
61	0x3d1e1cde	0.03860175
62	0xbd4f806a	-0.050659575
63	0xbeace7b9	-0.3377054
64	0xbe2709a3	-0.1631227
65	0xbe1f631e	-0.15565154
66	0x3da2dfb8	0.07952827
67	0x3eb92704	0.3616258
68	0xbe048048	-0.1293956
69	0x3ea9299c	0.33039558
70	0xbd8e48e7	-0.06947499
71	0xbe73c21c	-0.23804516
72	0xbda32fbc	-0.07968089
73	0x3e12b91a	0.14328423
74	0xbbcdda0e	-0.0062820977
75	0x3e4caba4	0.1998735
76	0xbe19468f	-0.14968322
77	0x3e096c03	0.1342011
78	0x3c45dcf6	0.012076607
79	0x3d50537b	0.050860863
80	0xbe2e54bb	-0.1702451
81	0x3df638e8	0.12022573
82	0xbe194d48	-0.14970887
83	0x3e739349	0.23786654
84	0xbd2c2e46	-0.042036317
85	0xbe0f7c44	-0.14012247
86	0xbb766b61	-0.0037600624
87	0x3d33c9ed	0.043893743
88	0x3c0eb3c6	0.0087098535
89	0xbddec152	-0.10876717
90	0x3e9ebd69	0.31003883
91	0xbe26395e	-0.16232821
92	0x3e2b7abe	0.16746041
93	0xbe91692a	-0.28400546
94	0x3dfb1884	0.12260535
95	0xbd79d0f9	-0.060990307
96	0xbc3d1eb3	-0.011542964
97	0xbdcc8266	-0.09985809
98	0x3e86db84	0.26339352
99	0x3c90fea8	0.017699555
100	0xbe13785f	-0.14401387
101	0x3d834606	0.0640984
102	0x3e25b473	0.16182117
103	0xbe730509	-0.2373239
104	0xbe029fb7	-0.12756239
105	0x3d8e8923	0.069597505
106	0x3e4c1e74	0.19933492
107	0xbda1cffc	-0.07900998
108	0xbdf68639	-0.1203732
109	0x3e8385e5	0.2568809
110	0x3e68d2cd	0.22736664
111	0x3cadfa91	0.021237643
112	0x3e287305	0.16450126
113	0x3d96a490	0.073556066
114	0xbd181340	-0.037127733
115	0x3d0eaf94	0.034835413
116	0xbdf578ea	-0.11985953
117	0xbc15b201	-0.009136678
118	0xbe4e3316	-0.20136675
119	0xbc2db6c3	-0.010602656
120	0xbd24f6a7	-0.04027429
121	0x3f17f9b2	0.5936538
122	0xbe114bc3	-0.14189057
123	0x3d41e508	0.04733756
124	0xbd027ff6	-0.031860314
125	0x3d791e9b	0.060820203
126	0xbd9e44b4	-0.07727948
127	0xbe141ac6	-0.14463338
128	0xbe9a35c5	-0.30119148
129	0x3d6839cc	0.056695744
130	0x3f56ea16	0.83950937
131	0xbe9f9e1b	-0.31175312
132	0xbed07c3c	-0.40719783
133	0xbf059459	-0.52179486
134	0x3eae994b	0.34101328
135	0xbcae5e54	-0.021285214
136	0xbc9bbc5f	-0.01901072
137	0x3d07fea0	0.033201814
138	0x3e4c9843	0.19979958
139	0x3e063082	0.13104442
140	0xbdabc232	-0.08386649
141	0xbdb8d0c5	-0.09024195
142	0xbdeb12ac	-0.11478171
143	0x3e96c431	0.29446557
144	0x3dea9105	0.114534415
145	0xbdc32f96	-0.09530561
146	0xbdb6e6e8	-0.089307606
147	0xbe823d43	-0.25437364
148	0xbe68e887	-0.22744952
149	0x3e39a192	0.1812804
150	0xbd3fdcaa	-0.0468413
151	0xbbc59aef	-0.0060304324
152	0xbdd439c8	-0.103625834
153	0x3e5ca1a6	0.21546039
154	0xbdb9892d	-0.09059367
155	0x3e164880	0.14676094
156	0xbe22a019	-0.15881385
157	0xbe5ecafa	-0.21757117
158	0x3e0bac64	0.1363998
159	0x3e7ee0e3	0.24890475
160	0x3e426412	0.18983486
161	0xbeba95a1	-0.36442283
162	0x3c9e1f53	0.019302046
163	0x3dd4ef33	0.10397186
164	0xbdccdf74	-0.10003558
165	0xbd732d8d	-0.059369612
166	0x3d9110cc	0.07083282
167	0xbdc7877d	-0.09742639
168	0xbe03c113	-0.1286662
169	0xbe48cdfa	-0.19609824
170	0x3d995e7c	0.074887246
171	0x3cbde71e	0.023181494
172	0xbe096eb0	-0.1342113
173	0x3e0e2997	0.13883053
174	0x3d810fd7	0.06301849
175	0x3e36424f	0.17798732
176	0x3d2e91b5	0.042619426
177	0x3d9a6a5f	0.0753982
178	0xbe3d0bb7	-0.184615
179	0x3d558077	0.052124467
180	0xbb26a956	-0.0025430522
181	0x3dc4f04d	0.09616146
182	0x3c806153	0.015671408
183	0x3c0f42f2	0.008743988
184	0xbe8525b2	-0.26005322
185	0x3e5cf22d	0.21576758
186	0xbd200827	-0.039070275
187	0x3e6aecde	0.2294192
188	0xba31eea6	-0.00067875755
189	0x3cb91c94	0.022596635
190	0xbe6fc196	-0.23413691
191	0xba77af91	-0.00094484637
192	0xbd1bd254	-0.03804238
193	0x3e994b99	0.2994049
194	0xbe7feaf1	-0.24991967
195	0xbd0107d7	-0.031501617
196	0x3ddd31f1	0.10800541
197	0xbe16d6e3	-0.1473041
198	0xbd6e8eb3	-0.058241557
199	0x3d5301b6	0.051515304
200	0xbc7928f4	-0.015207518
201	0x3dfb7756	0.12278621
202	0xbe06ae08	-0.13152325
203	0xbda1ef8d	-0.07907019
204	0xbc6d721e	-0.01449254
205	0x3e31635f	0.17323063
206	0x3d4a40b4	0.049378112
207	0x3ddd2622	0.10798289
208	0xbe6709ee	-0.22562382
209	0xbd912c20	-0.07088494
210	0x3a0a0b10	0.00052659307
211	0xbe152623	-0.14565329
212	0x3da56865	0.08076552
213	0x3de89459	0.1135642
214	0xbd0b24e2	-0.03397072
215	0x3d7e8265	0.062136073
216	0x3d5aea93	0.053446364
217	0x3cf25fbd	0.029586667
218	0x3b65c14a	0.0035057836
219	0x3cea57a5	0.028606245
220	0xbf34121d	-0.7034014
221	0x3d0578f3	0.03258605
222	0x3d964b51	0.07338584
223	0x3c7650f9	0.015033954
224	0x3d56eccf	0.052471932
225	0x3c5afe69	0.01336632
226	0xbc38c5da	-0.01127764
227	0xbd4b23e6	-0.049594782
228	0x3dda32a8	0.10654193
229	0x3dae9789	0.08524997
230	0x3bddcf90	0.006769128
231	0x3d4ac0a8	0.049500138
232	0x3d17cc80	0.03706026
233	0xbc142ed0	-0.009044364
234	0xbd37d399	-0.04487953
235	0x3d968053	0.07348695
236	0x3d03655f	0.032079097
237	0x3d91cd79	0.07119269
238	0xbdf6ef61	-0.12057377
239	0xbd5a5dae	-0.053311996
240	0xbd5cceaf	-0.053908046
241	0x3deeac1f	0.11653923
242	0x3de0e35a	0.10980864
243	0x3c83abe5	0.016073177
244	0xbc389956	-0.011267027
245	0xbc93592b	-0.017986855
246	0x3cb6deaf	0.02232298
247	0xbe99d99f	-0.30048844
248	0xbdf24c01	-0.11830903
249	0x3e14e5a6	0.14540729
250	0x3e176cdd	0.14787622
251	0xbcd36063	-0.025802797
252	0xbdd02c24	-0.10164669
253	0x3cfd7a67	0.030942155
254	0xbe66e1ea	-0.22547117
255	0x3d8ee2f8	0.069768846

filter.2.bias f4 [12]
0	0x3e858c4d	0.26083604
1	0x3cda018d	0.026612068
2	0xbc55df05	-0.01305366
3	0xbd58cdab	-0.052930515
4	0x3c117259	0.00887736
5	0x3d271a63	0.04079665
6	0xbd2c0288	-0.0419946
7	0xbd0fc175	-0.035096604
8	0xbe23694a	-0.15958133
9	0x3d3a5bcb	0.045497697
10	0xbd4c1878	-0.049828023
11	0xbd3a81d9	-0.04553399

filter.4.weight f4 [128, 12, 3, 3]
0	0x3e06543e	0.13118073
1	0x3e4f7849	0.20260729
2	0x3dfa6d68	0.12227899
3	0x3e35d5da	0.17757359
4	0x3fbe92db	1.4888567
5	0x3dd51fc9	0.10406453
6	0xbdccf489	-0.10007579
7	0x3e327e4e	0.17430994
8	0x3d8b3bad	0.067984916
9	0x3e90b1a1	0.2826052
10	0xbe1a934b	-0.1509525
11	0xbd90bb2b	-0.070669495
12	0xbea6b9b7	-0.32563564
13	0xbe91b3b8	-0.28457427
14	0xbf1c37eb	-0.61022824
15	0x3e4cf5cb	0.20015638
16	0x3dccf071	0.10006798
17	0xbd5d49ca	-0.05402545
18	0x3f0b4724	0.54405427
19	0xbcc7dd68	-0.024397567
20	0x3e2d02e6	0.16895637
21	0x3f14ab8c	0.5807426
22	0xbea5d2ec	-0.32387483
23	0x3dff5b62	0.12468602
24	0xbe47c1fe	-0.19507596
25	0xbecea544	-0.40360463
26	0xbb33b930	-0.0027423613
27	0xbed64e6e	-0.41856712
28	0xbf233e14	-0.637666
29	0x3e8b1aa3	0.2716876
30	0x3d4f16d4	0.05055888
31	0xbf594d4f	-0.8488359
32	0x3e85fad9	0.26167944
33	0xbe7b7b0c	-0.24558657
34	0x3e9a2b4d	0.3011116
35	0x3e87630d	0.26442757
36	0xbdaea0d8	-0.08526772
37	0xbda2efc2	-0.079558864
38	0x3e434567	0.19069444
39	0x3e431824	0.19052178
40	0x3f02d654	0.5110829
41	0x3cf7dccb	0.03025665
42	0xbe206d9f	-0.15666817
43	0xbd9f1daf	-0.077693336
44	0x3da7e816	0.08198564
45	0xbd5df995	-0.054193098
46	0xbd7b6df3	-0.061384153
47	0x3e291cb6	0.16514859
48	0x3c345a80	0.011007905
49	0xbe34cd4a	-0.17656437
50	0xbd271971	-0.040795747
51	0xbc14d376	-0.009083619
52	0x3dd9f7ae	0.10642944
53	0x3db97654	0.090557724
54	0x3e5eb203	0.21747594
55	0xbdb525d9	-0.088451095
56	0x3da7a81c	0.08186361
57	0x3e340ac0	0.17582226
58	0x3ddaab4b	0.10677203
59	0xbe3ee69d	-0.1864266
60	0xbeee6ca2	-0.46567255
61	0x3c6fc7ff	0.014635085
62	0x3ca5c4d0	0.02023545
63	0xbc83f2ae	-0.01610693
64	0xbe3050de	-0.17218348
65	0xbe7d1c2a	-0.24717775
66	0xbea0d3ab	-0.3141149
67	0xbe8dd186	-0.27698916
68	0xbe7105c6	-0.23537359
69	0xbd09674d	-0.03354578
70	0x3ed4e9d8	0.4158466
71	0xbe7d3b8f	-0.24729751
72	0x3dbafb8f	0.09130012
73	0x3e8f8dc1	0.28037837
74	0xbd8fa6ab	-0.07014211
75	0x3e68d5a9	0.22737755
76	0x3eb7e5e4	0.3591758
77	0x3cd4e469	0.02598782
78	0xbd78e205	-0.060762424
79	0xbe018fbd	-0.12652488
80	0x3d31b66b	0.043386858
81	0x3f6154c4	0.8801997
82	0x3e312bc5	0.17301853
83	0xbab64725	-0.0013906701
84	0x3e2a1710	0.1661036
85	0x3e4a4c8f	0.19755767
86	0x3d23e006	0.040008567
87	0xbe753495	-0.2394584
88	0x3e256ed0	0.16155553
89	0x3e51672c	0.20449513
90	0x3d45214c	0.048127457
91	0x3dcf9298	0.101353824
92	0xbdaed4b3	-0.08536663
93	0xbcb71594	-0.022349156
94	0xbd1b251d	-0.03787719
95	0xbe3467a8	-0.17617667
96	0xbcad3acf	-0.021146206
97	0x3d82cf1d	0.0638716
98	0xbcddcb53	-0.027074492
99	0xbe5be0ec	-0.2147252
100	0x3ef9a28c	0.48756826
101	0xbe4bc338	-0.19898689
102	0x3ed84250	0.42238092
103	0x3ee1985d	0.44061556
104	0xbe7727a1	-0.24136211
105	0x3d23e133	0.04000969
106	0xbe2824b5	-0.16420253
107	0xbe146855	-0.14492925
108	0x3dccf007	0.10006719
109	0x3ea2b2cc	0.31777036
110	0x3e17c784	0.14822203
111	0x3e6dc703	0.23220448
112	0x3fc6f5db	1.5543779
113	0x3e3ac437	0.18238913
114	0xbe211a75	-0.15732749
115	0x3e5f3ee6	0.21801338
116	0xbdf5e87d	-0.12007234
117	0x3e16a887	0.14712726
118	0xbe895972	-0.26826054
119	0x3dd1a27d	0.1023607
120	0x3c84105f	0.016121088
121	0xbeb7372d	-0.35784283
122	0x3ea1b360	0.31582165
123	0xbdcac1ff	-0.09900283
124	0xbcf8f91c	-0.030392222
125	0x3e9263f9	0.28591898
126	0x3ef08454	0.46975958
127	0x3ebfba22	0.37446696
128	0x3e2c56dd	0.1683001
129	0xbe7dbd24	-0.24779183
130	0xbec14d0c	-0.37754095
131	0xbd93333d	-0.07187507
132	0x3e5204a9	0.2050959
133	0xbea607cd	-0.32427827
134	0x3d03e133	0.03219719
135	0xbe43e66f	-0.19130872
136	0x3d4d27ac	0.050086662
137	0x3de9e037	0.11419719
138	0x3da52038	0.08062786
139	0xbf87a5d5	-1.0597483
140	0xbe8e8279	-0.27833918
141	0x3d7e6e85	0.06211712
142	0x3e0c0b4b	0.13676183
143	0x3cb4a4bc	0.022051208
144	0x3e3294a7	0.17439519
145	0xbe0f16bf	-0.1397352
146	0x3e74356f	0.23848508
147	0x3d441817	0.047874536
148	0x3e6b7ac9	0.22996058
149	0xbd055bd9	-0.032558296
150	0x3d211aae	0.039332084
151	0x3ceab138	0.028648958
152	0xbeaeccbe	-0.3414058
153	0x3d37eaf1	0.044901792
154	0xbe04a0fd	-0.12952037
155	0x3daf9e07	0.08575063
156	0x3bcb868d	0.006211108
157	0xbd79a21a	-0.060945608
158	0xbc25506d	-0.010089976
159	0x3c9644bd	0.018343324
160	0xbd8645c3	-0.06556275
161	0xbba0926c	-0.0049002673
162	0x3e113625	0.14180811
163	0x3ebee0fe	0.3728103
164	0xbeb4c68a	-0.35307723
165	0x3d897d9a	0.0671341
166	0x3e27f9e0	0.16403913
167	0xbe8fda47	-0.2809622
168	0xbd0de1ba	-0.034639098
169	0xbeb3e2fb	-0.3513411
170	0xbe91bd2e	-0.28464645
171	0xbeea6d72	-0.45786625
172	0x3e1f6feb	0.15570037
173	0x3ed64e42	0.4185658
174	0x3d9b1ab1	0.0757345
175	0x3e5f5aad	0.21811934
176	0xbd6f5d16	-0.058438383
177	0xbd987ce1	-0.07445694
178	0xbe85c432	-0.26126248
179	0x3e167561	0.14693214
180	0x3c8004fb	0.015627375
181	0x3d3e9d69	0.046536837
182	0xbd49f83e	-0.049309008
183	0xbdb5a02d	-0.08868442
184	0x3d79a8d6	0.06095203
185	0x3c99fbba	0.01879679
186	0xbca3c825	-0.019992897
187	0xbd56a2c6	-0.052401327
188	0xbcef304d	-0.029197836
189	0x3bd4d87d	0.006495534
190	0x3ecd85b2	0.40141064
191	0xbcd6f9ee	-0.026242223
192	0x3ee5b32f	0.4486327
193	0xbe76037a	-0.24024764
194	0x3e31133f	0.17292498
195	0xbe74e65b	-0.23915999
196	0xbe56c3cf	-0.20973133
197	0xbcef18c0	-0.029186606
198	0xbdb72276	-0.0894212
199	0x3e43d01d	0.19122358
200	0xbd2553c6	-0.040363096
201	0x3d7123d2	0.05887205
202	0xbd2cfe0c	-0.042234465
203	0xbca5c026	-0.020233225
204	0xbd8525b2	-0.065013304
205	0xbc4ecb74	-0.012621749
206	0x3c9e1374	0.019296385
207	0x3cb9e7be	0.022693511
208	0x3f3153dd	0.6926859
209	0x3d773a39	0.06035826
210	0x3dcdd9be	0.10051297
211	0x3d73e9b5	0.059549052
212	0xbeb8070f	-0.35942885
213	0x3b9f06fc	0.0048531275
214	0x3dd6bc5d	0.10485146
215	0x3deab36b	0.114600025
216	0x3e2b8de0	0.1675334
217	0x3ec827e5	0.39092937
218	0xbc968762	-0.018375102
219	0x3e9ad968	0.30243993
220	0x3fcd62d3	1.6045784
221	0x3e32177f	0.17391776
222	0xbe8c9365	-0.27456203
223	0x3e6102a2	0.2197366
224	0x3d165736	0.036704265
225	0xbd9403c9	-0.072272845
226	0xbe003229	-0.12519135
227	0x3bb71077	0.0055866796
228	0xbdedde6f	-0.116146915
229	0x3e955b14	0.2917105
230	0x3e96e753	0.2947336
231	0x3db7c463	0.08973005
232	0x3d031171	0.031999055
233	0xbda2e813	-0.07954421
234	0x3cb74d4f	0.02237573
235	0x3ce070b1	0.027397485
236	0xbdd0b188	-0.101901114
237	0xbd75b191	-0.059983794
238	0x3d256f46	0.04038932
239	0xbe094e3d	-0.13408752
240	0xbda1e045	-0.07904104
241	0xbd6b0721	-0.057379846
242	0x3d8518fc	0.06498906
243	0x3e206274	0.15662557
244	0xbe2826fa	-0.16421118
245	0xbe93becf	-0.28856513
246	0x3dc33162	0.095309034
247	0xbf07a3d7	-0.52984375
248	0xbf26b240	-0.6511574
249	0x3ca222cc	0.019791983
250	0x3e057746	0.1303378
251	0x3de59f5d	0.11212037
252	0x3d0a38df	0.033745643
253	0xbe24b658	-0.16085184
254	0x3e5ee57d	0.2176723
255	0xbe598b1d	-0.21244474
