onnx_models/eSR-CNN_s2_C8_D3_S12.onnx (onnx, 31216 bytes, 5 tensors)

filter.0.weight f4 [3, 1, 5, 5]
00000000: 837b e2bc a554 9f3c 1a0a 553d f76a b33b
00000010: 2285 843b 82c0 6c3c d967 b53c 75c8 91be
00000020: 71b3 8d3b 4e02 7d3c 1a5d 9cbc 757e deba
00000030: 3fec 913f 94df 0ebe d7a6 0cbd 5b61 c43c
00000040: 534f 26bd 42b1 5dbe c9cd 6c3d 314d be3c
00000050: ad48 8dbb 63c4 853c 51af 273d 4651 aabc
00000060: bf7c 08bc 15fe 983c 2bd0 743d 6098 b7bd
00000070: c36e a43c 2b04 34bd 0be6 1c3e 702f 79be
00000080: 8172 84be 2d3d 993e 4f46 a7bd 3993 b23e
00000090: 82a3 8ebe b9bb e03e dcc4 1dbf 1fdd 133c
000000a0: 300a c4bb 318c 533e b0e7 f43d fa83 a13d
000000b0: 16a9 9cbc ffb2 5dbd 254d 26be 7842 0e3e
000000c0: 0ec4 ecbc 823a faba a778 00bd c355 a0bc
000000d0: 7b54 703e 5c9c 63be dd04 71bd 3bde 8dbe
000000e0: 517f 753e d3d0 c6bd 0596 fa3e 6404 5f3d
000000f0: b50a 95bd 6f5c 38bf 9b33 be3f 1edb 55bf
00000100: 8c5e 9d3e 7fa8 603c e64b cebe cd5b 043e
00000110: 2727 183e 80c3 373d 497c fb3c edb6 eebc
00000120: 93de 883d a16c 40be 9b00 ef3c
-0.027646786 0.019449541 0.052011587 0.0054753977 0.004044191 0.014450194 0.022144245 -0.2847325
0.0043243696 0.015442444 -0.019087363 -0.0016974943 1.1400222 -0.13952476 -0.0343388 0.023972204
-0.040602993 -0.2164965 0.05781344 0.023230167 -0.004311642 0.016328996 0.04093868 -0.020790707
-0.008330523 0.018675843 0.059768837 -0.0896461 0.020072347 -0.043949287 0.1532213 -0.24334502
-0.2586861 0.29929486 -0.08167707 0.34877947 -0.27859122 0.4389322 -0.6162851 0.009024887
-0.0059826598 0.20658948 0.119582534 0.07886501 -0.019123595 -0.054125782 -0.16240366 0.13892543
-0.02890208 -0.0019090923 -0.031365063 -0.019572144 0.23469727 -0.22227615 -0.05884253 -0.2770861
0.23974349 -0.09707799 0.4894258 0.054447547 -0.07277433 -0.7201604 1.4859499 -0.8353747
0.30736196 0.013712048 -0.4029228 0.12925644 0.14858685 0.044864178 0.030698912 -0.02913996
0.06683078 -0.18791439 0.029175093

filter.0.bias f4 [3]
00000000: d6c0 c6be 2ce1 65bc c79f 17be
-0.38818997 -0.014030736 -0.14807044

filter.2.weight f4 [12, 3, 3, 3]
00000000: b993 f83b 3836 8fbd 3273 ea3c 839c 22bd
00000010: 5c48 123f 718e 24bd 0f0b 9c3b e7a4 edbc
00000020: 9a66 063d 5855 45bc cbd8 8f3c dae9 8b3c
00000030: 0d7a 53b9 1f03 fabc b07f 63bd 2a36 10bc
00000040: 632d 4c3d 7c30 793b 0cd0 80bc ef47 823c
00000050: 4414 8dbb a574 9b3c 26fd 68bd a3e4 c8bb
00000060: 625a cabb 5597 f03c 16f5 6fbb 089a 76c0
00000070: 12f7 12c0 0174 7ebe e8ab 40bf e10d aa40
00000080: 66fa fb3f 9f4d 7c3f b7e3 da3e c83a d7bf
00000090: 30b3 f7bf c6d9 89be dc82 fb3e 3db3 39bf
000000a0: 8165 893f ccc5 67bf 3f71 a33f cbb8 91bf
000000b0: 8d1a 833f 0c86 b0bf 49a3 ecbf f316 b53e
000000c0: 95b6 44bf abbe 2940 8680 633e 0c75 8f3f
000000d0: 96ac 483e 9489 d3be 1f2b 39be 269d 3c3e
000000e0: 764a 483d 1af5 46be 929c 7f3e c583 31bd
000000f0: a386 bcbd e1a2 a1be 6e20 843d 60ae 3dbd
00000100: b6f1 3cbe 9f0c e2bd eb51 1b3b 7a03 403e
00000110: da56 d1bc 4177 ff3b 16bd a83d a9b2 7d3e
00000120: b470 f1bd ba18 3bbe 1643 173d 4b43 8d3e
00000130: 361a 28bd 250c 0f3e befa 48bd 6ce8 b1bc
00000140: 4082 773d 1981 bbbd eec6 203c e6a1 723e
00000150: 24d7 fe3d 45a4 0c3f 8e42 38be af2a a1bd
00000160: 64f3 9cbe af17 543c 4046 9939 2860 453d
00000170: 3846 053e fc6b a7bd 749b e9be 2856 c5be
00000180: 44ae 98bc 8fbe 4f3c aecc 973d 7f7d 003e
00000190: d96a 0b3e 504a 0b3d 5a39 9abe a318 1cbf
000001a0: 5b59 693d 2a5e 033e 0986 113e 6388 493d
000001b0: b5d5 70bb db18 7bbe ad99 03bd 0e52 69bd
000001c0: 6fb1 7b3e 7d58 b1bd 86ad 503e bf6b 9abe
000001d0: c29a 983d 5133 8bbd b927 8d3d 9724 823c
000001e0: cb60 b73e 9e28 33bc 28ec 9bbc 8c0e 573e
000001f0: f6a8 88be d44a 88be 2a63 863d 878f 0c3e
00000200: 9cd4 d23d 9ed3 0b3e 5d7b 0abe 3d19 66be
00000210: 4323 d13c 12b9 b53d 4c7b d8bd f0ed 003e
00000220: 2166 50be d9d9 333d e310 babd e023 933e
00000230: 746b 82be 9710 a13e 810f 05be 25f1 a5be
00000240: de50 9ebd 7909 cebd 6b3b cf3e 01ec c23d
00000250: cacc 0cbe 78cb 0d3e 556d 053c e950 9cbd
00000260: d5f8 443e 1d93 09be 406a 193c 3da5 0fbe
00000270: d077 0d3d 7ebf 033e 42df 0a3e 6d17 d63c
00000280: dd3c d23d 11c1 e4bd 1ebc 233f 4589 803f
00000290: 4215 6abf 8773 0ac0 f54b 8a40 6030 353f
000002a0: c1af 0dc0 8e26 cdbf 2030 40bd 4c67 36bf
000002b0: e782 903f 4286 4d3f 0420 63bf 939c 0ac0
000002c0: 981d 84bd 940a 6cbf 1380 9abe 9d9b 853f
000002d0: 98cd ce3e 648b 493e aa6e d9be a12c 3ec0
000002e0: c0cd 2240 5d18 90bc f304 2a3f a28f 81bf
000002f0: e49c 283f 2bd0 2b3c 7d99 bebe f4f8 4c3d
00000300: cf32 75be 8e17 f03e 9ff2 4ebe f838 8cbe
00000310: d671 7c3e c67a c23d c66f c43d 5dce 803d
00000320: 63c3 613e 0659 403e bd24 d8be f7d7 22be
00000330: 86e0 bebd 4931 333d 845c bbbd 3742 163e
00000340: 06f2 343d 4b1c 33bd becc 1e3e 69ed ddbe
00000350: fbe5 3d3e 9a78 1cbe 345d a53d a048 493d
00000360: df08 293d f2ef aa3c 205d f83d 2fc9 3a3c
00000370: 8204 563f fb1e efbe dba1 dbbd ea08 4bbd
00000380: e3f0 cabd 6075 eebd a64f c63e 7b78 11be
00000390: e431 74bd e5fe 963e 02db 8c3d a95f e43d
000003a0: cfae 92bd 6115 54be 1107 f8bd 2581 a43e
000003b0: 357d 40be bee2 57bd 5edb ec3e 8800 25bf
000003c0: cf5f 263e b0d8 97be 8604 31bd ad47 0b3d
000003d0: e951 c53c ab83 0bbd 2437 a9bd 3fe9 613f
000003e0: 3874 bfbc a0aa 6abc 012b 85bd 0f4e a2bd
000003f0: 3231 e0bc 0fed fa3d f593 9f3d 961f e83c
0.0075859693 -0.06992763 0.028619383 -0.039700042 0.5714166 -0.040174905 0.0047620605 -0.029009296
0.032812692 -0.012044273 0.01755943 0.017079283 -0.00020167996 -0.030519066 -0.055541694 -0.008801976
0.04984797 0.0038023284 -0.015724204 0.015903441 -0.0043053944 0.018976519 -0.056882046 -0.0061307712
-0.0061753253 0.029369036 -0.0036614588 -3.8531513 -2.29633 -0.2484894 -0.7526231 5.314194
1.968579 0.9855594 0.42751858 -1.6814814 -1.9351559 -0.2692396 0.49123275 -0.7253912
1.0734102 -0.9053619 1.2768935 -1.1384519 1.0242478 -1.3790908 -1.8487331 0.3536907
-0.768411 2.6522624 0.22216997 1.1207595 0.19597086 -0.413159 -0.18082856 0.18419322
0.048899136 -0.19429436 0.2496207 -0.043338556 -0.092053674 -0.3156958 0.06451498 -0.046308875
-0.1845158 -0.110375635 0.002369995 0.18751326 -0.02555411 0.0077961986 0.0823919 0.24775185
-0.117890745 -0.18271151 0.036929213 0.27590403 -0.04104062 0.13969477 -0.04906725 -0.021717273
0.06042695 -0.09155483 0.0098130535 0.23694572 0.124433786 0.54938155 -0.17994139 -0.078694694
-0.30654442 0.0129451 0.00029234774 0.048187405 0.13015068 -0.08174893 -0.45626414 -0.38542295
-0.018637784 0.01267971 0.074120864 0.12547873 0.13614978 0.034006417 -0.3012188 -0.6097509
0.05696998 0.1282889 0.14211287 0.049202334 -0.0036748473 -0.245212 -0.03212898 -0.05696302
0.24579404 -0.08659456 0.20378694 -0.3016033 0.07451393 -0.06796897 0.06892342 0.015886588
0.35816035 -0.010934977 -0.019033507 0.21001643 -0.26691407 -0.2661959 0.06561883 0.13726626
0.10294458 0.13654944 -0.13523622 -0.22470565 0.02552951 0.0887319 -0.10570392 0.12590766
-0.20351459 0.043908928 -0.09085252 0.28738308 -0.25472605 0.3145797 -0.12994196 -0.3241054
-0.07730268 -0.100604005 0.4047502 0.095176704 -0.13749996 0.13847148 0.008143743 -0.0763262
0.19235547 -0.13435026 0.009363711 -0.14027877 0.03453809 0.12866017 0.13561729 0.026134217
0.10265515 -0.11169637 0.6395892 1.0041891 -0.91438687 -2.1633012 4.321772 0.7077694
-2.2138522 -1.6027391 -0.046920896 -0.7125137 1.1289948 0.80282986 -0.88720727 -2.1658065
-0.06450957 -0.9220364 -0.30175838 1.0438114 0.4039123 0.1968208 -0.42467242 -2.971474
2.543808 -0.017589742 0.664138 -1.0121958 0.65864396 0.010486643 -0.37226477 0.050042108
-0.23945163 0.4689297 -0.2020974 -0.27387214 0.246528 0.094960734 0.095916316 0.06289361
0.2204719 0.1878396 -0.4221553 -0.15902697 -0.09320168 0.043748174 -0.09148505 0.14673696
0.044176124 -0.043728154 0.1550779 -0.43345192 0.18544762 -0.15280381 0.08074418 0.049141526
0.041268226 0.020866368 0.12127137 0.011400505 0.8360063 -0.46703324 -0.10724231 -0.049569048
-0.09909227 -0.11643481 0.38732642 -0.14206116 -0.059617892 0.29491344 0.0687771 0.11151058
-0.07162248 -0.2071128 -0.12110723 0.3212978 -0.18797763 -0.052706473 0.46261114 -0.64453936
0.16247486 -0.29657507 -0.043217205 0.034003902 0.02408691 -0.034061115 -0.0826247 0.8824653
-0.023370847 -0.014322907 -0.06502343 -0.07925045 -0.027367208 0.122522466 0.077918924 0.028335374

filter.2.bias f4 [12]
00000000: 79dc 8b3e cba6 febc 9cb2 4cbc 2b5f aa3c
00000010: 1773 0b3c 99a1 cebc f1ad 67bd ffe8 73bc
00000020: 5844 8e3c 52fa 633d bd97 c6bc fbcc 93bc
0.27316645 -0.031085392 -0.012493756 0.020797333 0.008511326 -0.02522354 -0.056562368 -0.014887094
0.017366573 0.055658646 -0.024242276 -0.018042078

filter.4.weight f4 [64, 12, 3, 3]
00000000: 1b4e dd3c e3dc aa3e 0295 47bd f43a 923e
00000010: 988e b63f 9e82 873d 505f 7dbd 3606 e63d
00000020: 33d6 e0bc d2a9 ad3b 89e1 b33a 95da b03b
00000030: 4935 2d3b 204a 09bd dfa5 24bc 137e 1f3b
00000040: 5ba1 1dba 514f a9ba fdc5 0b3e e408 c93d
00000050: 45c0 193d 7a24 9ebe 912e 95be b72d f4bd
00000060: 02ce 34bd de69 0ebd afb3 9b3d 714e 843d
00000070: 8db5 643d ba0c 103d 115d 81be 539b f23d
00000080: 7cd7 67bd ec54 90bd 65ab 993d 4fb7 efbc
00000090: 305b 003b 5be1 f33b b28c 413d 0cd4 f3bb
000000a0: 5f53 11be e249 a03c dd86 84bd 2e99 ba3c
000000b0: 4a41 903c ef4f 973d 2667 06bc 8aa5 003d
000000c0: bc2a 1abe c541 7a3d 1a88 8abd 84be 863c
000000d0: 4947 cfbd 81a0 c63d 15f5 1a3b 94f3 4c3d
000000e0: cac6 023c 7c81 093c 055b 9fbc 9fb9 28bc
000000f0: b5ae 263c 02cd beba d50a 343c 7bf8 f73d
00000100: 6cb6 c63d a4c6 21bc 7008 1ebe 3694 00bf
00000110: b30b 083d 2cac 86bd aa65 6c3d f800 493d
00000120: 32a4 bc3d 14d8 4c3c 534f 47bd 1bf4 813e
00000130: c8ea 61bd 2a83 5cbd 5580 00be f272 013c
00000140: fe60 57bc d627 fd3a cc85 3b3e b1b7 e33b
00000150: 0a82 b13e 0830 ba3e 0a68 f83d 8491 21be
00000160: 5a4a a3bd 6607 f53b d036 be3c f2bd d53c
00000170: 84ff 7abd 1f1c 8a3d d7d3 6c3d e972 81bc
00000180: 53e6 a4bd 0259 69bb 79f5 d73b 8f6e e7bd
00000190: 6839 953d 6910 84bc 2f14 f63d 0587 3c3d
000001a0: df73 75bb 499a 643d 029f 683d d8c5 afbc
000001b0: 1949 8bbd 9dd0 203e 2ad9 903e 42cb c0bd
000001c0: a4ee ae3f a9c6 aa3d a488 b93d 894d 4d3e
000001d0: d028 08bd 88ff 4cba 38be ea3c 845b 583d
000001e0: 3e2e d8bc ec73 623c 4bf0 703d a31c 1fbd
000001f0: d3c8 fabd f6ed cbbd 8cc1 1fbd 0772 8ebe
00000200: 9b33 eb3d 75c2 6a3d ee1c 1cbc 4f2c 05be
00000210: 8a21 07be db38 973e 0c59 b93e 7317 a6bc
00000220: 2c2c a03d ad88 0bbd 906a 433e d639 3dbe
00000230: 676d 3f3d d8d3 12be 036e aabd 63d4 c53d
00000240: 8573 95be 119b 54bd ffed e2bb e75e fd3d
00000250: 04af f93d a520 833e 42b6 6abd 4859 5abd
00000260: e073 debd 9dfa 5fbd f696 1fbe 3992 b9be
00000270: 86b5 623e 7bf4 3c3f 40e7 133d 675b dc3d
00000280: dc27 a5be 050e 7f3d ea77 853b 5915 57b9
00000290: 2149 483d b17d 223c 15eb a23c e10b b4bb
000002a0: b90a 94bd 60fe d4bc 2028 8e3d 6f5d 46be
000002b0: a2a6 b03e 67b7 a0bd a82f ef3e 5d84 f6be
000002c0: 6962 b53e cc8c 723e d722 863e 7681 9ebe
000002d0: 5d23 e1bd e18d 403d d01e b73c d259 e9bc
000002e0: ab22 043d 1e51 a63e e59a d1bd ad6d 4cbe
000002f0: 4906 90bd cdbf b83e 46f5 063f 59f2 203e
00000300: 57ad b7bd 90ec 133f c5f0 e83e 4096 ebbc
00000310: 4caa af3e 8084 c83d da3e 6b3e 531a 1bbe
00000320: af8b e6bd 16da 913d df6b 013f 4196 573e
00000330: 1382 1c3d d429 4cbe f75d f6be 4231 d73d
00000340: a4d5 9bbd ed95 8abe ebd7 f43d 47a1 a73d
00000350: 5253 023f fce1 48be b2c7 e9be f893 903e
00000360: fee0 a93d a5c4 8c3d 7bc6 c4bd a243 683d
00000370: a370 cb3f 9a4c 863e 63dd 8a3d 378f 223e
00000380: e5e2 84bd 7110 3cbe 3b49 07be cc1d ca3d
00000390: 28d3 203e be17 2fbe fb5f f9bd 31de 34be
000003a0: c3cb 7c3b e543 ec3d 87d6 a93e b40c 173d
000003b0: 1e25 d03d d87c b83d e812 a43c b250 31bd
000003c0: 203d 0c3d 1e04 023f 8f1b 12be 6bff 11bf
000003d0: 1ea3 e23d 7453 20be b565 debe 71cd 6fbe
000003e0: c74c 8b3e 2f08 ebba e6be 513e 72d2 b93e
000003f0: 1524 0b3d d2ee 92bd 684f eb3e fa71 15bf
0.027014783 0.33371648 -0.04872609 0.28560603 1.4262266 0.0661671 -0.061858475 0.112316534
-0.027445888 0.005299785 0.0013723831 0.0053971508 0.0026429466 -0.033517957 -0.010049312 0.002433662
-0.00060131185 -0.0012917315 0.13649745 0.09816149 0.03753688 -0.30887204 -0.2913709 -0.11922782
-0.044141777 -0.03476893 0.07602631 0.06460274 0.055837203 0.035168387 -0.25266317 0.11846032
-0.056601986 -0.070474476 0.07503394 -0.029262213 0.0019585602 0.007442636 0.047253318 -0.0074410494
-0.1419196 0.01956648 -0.06471036 0.02277812 0.017609257 0.07388293 -0.008203303 0.03140787
-0.15055364 0.06109788 -0.067642406 0.016448267 -0.101210184 0.096985824 0.0023644615 0.05003698
0.007981965 0.008392688 -0.019452581 -0.010298162 0.010173489 -0.0014556947 0.010988911 0.12107941
0.09702763 -0.00987402 -0.15432906 -0.5022615 0.033214282 -0.06575808 0.057714142 0.04907319
0.09211005 0.012502689 -0.048659634 0.2538155 -0.055155545 -0.053836025 -0.12548955 0.00790094
-0.013145683 0.001931424 0.18312758 0.006949388 0.34669524 0.3636477 0.12129219 -0.15778166
-0.07973166 0.0074776886 0.023219496 0.02609155 -0.061278835 0.06743645 0.057819214 -0.015801864
-0.08051743 -0.0035606031 0.006590542 -0.11300384 0.0728634 -0.016121106 0.120155685 0.046027202
-0.0037453098 0.0558112 0.056792267 -0.021456644 -0.06801052 0.1570458 0.28290683 -0.09413768
1.3666577 0.08338673 0.09059265 0.20049109 -0.033242047 -0.00078200595 0.028655156 0.05282165
-0.026389237 0.013821583 0.05882291 -0.03884567 -0.122453354 -0.09957497 -0.03900294 -0.2782137
0.11484452 0.057314355 -0.009528382 -0.13005184 -0.13196388 0.29535565 0.3620075 -0.020274853
0.07820925 -0.03406589 0.19083619 -0.18479094 0.046735194 -0.14338624 -0.08321764 0.0965965
-0.29189697 -0.051905695 -0.006925344 0.12371617 0.12191585 0.25610843 -0.05730272 -0.0533078
-0.10861945 -0.054682363 -0.15584931 -0.36244372 0.22139558 0.7381055 0.03610921 0.10759621
-0.32256973 0.06226923 0.0040731328 -0.0002051195 0.048897866 0.0099176625 0.019887486 -0.00549458
-0.07228608 -0.026000202 0.06941247 -0.1937158 0.3450213 -0.07847481 0.46716046 -0.4814786
0.35426643 0.23686522 0.26198456 -0.30958146 -0.10993073 0.047010306 0.02235356 -0.028485212
0.032259624 0.32483763 -0.10234622 -0.19963713 -0.07032449 0.36083832 0.5271801 0.15717448
-0.08968609 0.5778284 0.45496193 -0.028758168 0.34309614 0.09790897 0.22973195 -0.1514676
-0.11257111 0.07121675 0.50555223 0.21053411 0.038209986 -0.19937831 -0.48118564 0.10507442
-0.07609108 -0.2706751 0.119552456 0.08185058 0.50908387 -0.19617456 -0.45660168 0.2823789
0.08294867 0.068734445 -0.0960817 0.056705125 1.5893749 0.26230317 0.067805074 0.15874945
-0.06488589 -0.18365647 -0.13211529 0.098689646 0.1570555 -0.170989 -0.1217651 -0.17662884
0.00385736 0.11536387 0.33171484 0.03687735 0.101633295 0.09008187 0.020028546 -0.043289848
0.03423798 0.5078753 -0.14268325 -0.5703036 0.110662684 -0.15656835 -0.4343697 -0.23418213
0.27207014 -0.0017931516 0.20482978 0.3629337 0.033969957 -0.071744576 0.4595902 -0.5837704
